…
[2018-04-23 20:40:11]  I0423 12:39:43.349107    21 net.cpp:380] data -> label
[2018-04-23 20:40:11]  I0423 12:39:43.349280    21 image_data_layer.cpp:38] Opening file ./mydata/train.txt
[2018-04-23 20:40:11]  I0423 12:39:43.383114    21 image_data_layer.cpp:53] Shuffling data
[2018-04-23 20:40:11]  I0423 12:39:43.389876    21 image_data_layer.cpp:63] A total of 35000 images.
[2018-04-23 20:40:11]  I0423 12:39:43.404559    21 image_data_layer.cpp:90] output data size: 64,3,64,64
[2018-04-23 20:40:11]  I0423 12:39:43.429116    21 net.cpp:122] Setting up data
[2018-04-23 20:40:11]  I0423 12:39:43.429201    21 net.cpp:129] Top shape: 64 3 64 64 (786432)
[2018-04-23 20:40:11]  I0423 12:39:43.429250    21 net.cpp:129] Top shape: 64 (64)
[2018-04-23 20:40:11]  I0423 12:39:43.429275    21 net.cpp:137] Memory required for data: 3145984
[2018-04-23 20:40:11]  I0423 12:39:43.429316    21 layer_factory.hpp:77] Creating layer label_data_1_split
[2018-04-23 20:40:11]  I0423 12:39:43.429414    21 net.cpp:84] Creating Layer label_data_1_split
[2018-04-23 20:40:11]  I0423 12:39:43.429455    21 net.cpp:406] label_data_1_split <- label
[2018-04-23 20:40:11]  I0423 12:39:43.429545    21 net.cpp:380] label_data_1_split -> label_data_1_split_0
[2018-04-23 20:40:11]  I0423 12:39:43.429605    21 net.cpp:380] label_data_1_split -> label_data_1_split_1
[2018-04-23 20:40:11]  I0423 12:39:43.429721    21 net.cpp:122] Setting up label_data_1_split
[2018-04-23 20:40:11]  I0423 12:39:43.429770    21 net.cpp:129] Top shape: 64 (64)
[2018-04-23 20:40:11]  I0423 12:39:43.429814    21 net.cpp:129] Top shape: 64 (64)
[2018-04-23 20:40:11]  I0423 12:39:43.429847    21 net.cpp:137] Memory required for data: 3146496
[2018-04-23 20:40:11]  I0423 12:39:43.429893    21 layer_factory.hpp:77] Creating layer Convolution1
[2018-04-23 20:40:11]  I0423 12:39:43.429953    21 net.cpp:84] Creating Layer Convolution1
[2018-04-23 20:40:11]  I0423 12:39:43.430001    21 net.cpp:406] Convolution1 <- data
[2018-04-23 20:40:11]  I0423 12:39:43.430047    21 net.cpp:380] Convolution1 -> Convolution1
[2018-04-23 20:40:11]  I0423 12:39:45.698097    21 net.cpp:122] Setting up Convolution1
[2018-04-23 20:40:11]  I0423 12:39:45.698326    21 net.cpp:129] Top shape: 64 32 32 32 (2097152)
[2018-04-23 20:40:11]  I0423 12:39:45.698362    21 net.cpp:137] Memory required for data: 11535104
[2018-04-23 20:40:11]  I0423 12:39:45.698535    21 layer_factory.hpp:77] Creating layer BatchNorm1
[2018-04-23 20:40:11]  I0423 12:39:45.698629    21 net.cpp:84] Creating Layer BatchNorm1
[2018-04-23 20:40:11]  I0423 12:39:45.698676    21 net.cpp:406] BatchNorm1 <- Convolution1
[2018-04-23 20:40:11]  I0423 12:39:45.698731    21 net.cpp:367] BatchNorm1 -> Convolution1 (in-place)
[2018-04-23 20:40:11]  I0423 12:39:45.699074    21 net.cpp:122] Setting up BatchNorm1
[2018-04-23 20:40:11]  I0423 12:39:45.699131    21 net.cpp:129] Top shape: 64 32 32 32 (2097152)
[2018-04-23 20:40:11]  I0423 12:39:45.699158    21 net.cpp:137] Memory required for data: 19923712
[2018-04-23 20:40:11]  I0423 12:39:45.699204    21 layer_factory.hpp:77] Creating layer Scale1
[2018-04-23 20:40:11]  I0423 12:39:45.699324    21 net.cpp:84] Creating Layer Scale1
[2018-04-23 20:40:11]  I0423 12:39:45.699365    21 net.cpp:406] Scale1 <- Convolution1
[2018-04-23 20:40:11]  I0423 12:39:45.699409    21 net.cpp:367] Scale1 -> Convolution1 (in-place)
[2018-04-23 20:40:11]  I0423 12:39:45.699676    21 layer_factory.hpp:77] Creating layer Scale1
[2018-04-23 20:40:11]  I0423 12:39:45.700017    21 net.cpp:122] Setting up Scale1
[2018-04-23 20:40:11]  I0423 12:39:45.700074    21 net.cpp:129] Top shape: 64 32 32 32 (2097152)
[2018-04-23 20:40:11]  I0423 12:39:45.700122    21 net.cpp:137] Memory required for data: 28312320
[2018-04-23 20:40:11]  I0423 12:39:45.700163    21 layer_factory.hpp:77] Creating layer ReLU1
[2018-04-23 20:40:11]  I0423 12:39:45.700214    21 net.cpp:84] Creating Layer ReLU1
[2018-04-23 20:40:12]  I0423 12:39:45.700255    21 net.cpp:406] ReLU1 <- Convolution1
[2018-04-23 20:40:12]  I0423 12:39:45.700300    21 net.cpp:367] ReLU1 -> Convolution1 (in-place)
[2018-04-23 20:40:12]  I0423 12:39:45.700664    21 net.cpp:122] Setting up ReLU1
[2018-04-23 20:40:12]  I0423 12:39:45.700723    21 net.cpp:129] Top shape: 64 32 32 32 (2097152)
[2018-04-23 20:40:12]  I0423 12:39:45.700750    21 net.cpp:137] Memory required for data: 36700928
[2018-04-23 20:40:12]  I0423 12:39:45.700775    21 layer_factory.hpp:77] Creating layer Convolution1_ReLU1_0_split
[2018-04-23 20:40:12]  I0423 12:39:45.700826    21 net.cpp:84] Creating Layer Convolution1_ReLU1_0_split
[2018-04-23 20:40:12]  I0423 12:39:45.700860    21 net.cpp:406] Convolution1_ReLU1_0_split <- Convolution1
[2018-04-23 20:40:12]  I0423 12:39:45.700948    21 net.cpp:380] Convolution1_ReLU1_0_split -> Convolution1_ReLU1_0_split_0
[2018-04-23 20:40:12]  I0423 12:39:45.701012    21 net.cpp:380] Convolution1_ReLU1_0_split -> Convolution1_ReLU1_0_split_1
[2018-04-23 20:40:12]  I0423 12:39:45.701129    21 net.cpp:122] Setting up Convolution1_ReLU1_0_split
[2018-04-23 20:40:12]  I0423 12:39:45.701180    21 net.cpp:129] Top shape: 64 32 32 32 (2097152)
[2018-04-23 20:40:12]  I0423 12:39:45.701228    21 net.cpp:129] Top shape: 64 32 32 32 (2097152)
[2018-04-23 20:40:12]  I0423 12:39:45.701263    21 net.cpp:137] Memory required for data: 53478144
[2018-04-23 20:40:12]  I0423 12:39:45.701300    21 layer_factory.hpp:77] Creating layer Convolution2
[2018-04-23 20:40:12]  I0423 12:39:45.701381    21 net.cpp:84] Creating Layer Convolution2
[2018-04-23 20:40:12]  I0423 12:39:45.701441    21 net.cpp:406] Convolution2 <- Convolution1_ReLU1_0_split_0
[2018-04-23 20:40:12]  I0423 12:39:45.701472    21 net.cpp:380] Convolution2 -> Convolution2
[2018-04-23 20:40:12]  I0423 12:39:45.705803    21 net.cpp:122] Setting up Convolution2
[2018-04-23 20:40:12]  I0423 12:39:45.705874    21 net.cpp:129] Top shape: 64 32 32 32 (2097152)
[2018-04-23 20:40:12]  I0423 12:39:45.705919    21 net.cpp:137] Memory required for data: 61866752
[2018-04-23 20:40:12]  I0423 12:39:45.705974    21 layer_factory.hpp:77] Creating layer BatchNorm2
[2018-04-23 20:40:12]  I0423 12:39:45.706019    21 net.cpp:84] Creating Layer BatchNorm2
[2018-04-23 20:40:12]  I0423 12:39:45.706086    21 net.cpp:406] BatchNorm2 <- Convolution2
[2018-04-23 20:40:12]  I0423 12:39:45.706120    21 net.cpp:367] BatchNorm2 -> Convolution2 (in-place)
[2018-04-23 20:40:12]  I0423 12:39:45.706410    21 net.cpp:122] Setting up BatchNorm2
[2018-04-23 20:40:12]  I0423 12:39:45.706465    21 net.cpp:129] Top shape: 64 32 32 32 (2097152)
[2018-04-23 20:40:12]  I0423 12:39:45.706532    21 net.cpp:137] Memory required for data: 70255360
[2018-04-23 20:40:12]  I0423 12:39:45.706590    21 layer_factory.hpp:77] Creating layer Scale2
[2018-04-23 20:40:12]  I0423 12:39:45.706622    21 net.cpp:84] Creating Layer Scale2
[2018-04-23 20:40:12]  I0423 12:39:45.706655    21 net.cpp:406] Scale2 <- Convolution2
[2018-04-23 20:40:12]  I0423 12:39:45.706703    21 net.cpp:367] Scale2 -> Convolution2 (in-place)
[2018-04-23 20:40:12]  I0423 12:39:45.706809    21 layer_factory.hpp:77] Creating layer Scale2
[2018-04-23 20:40:12]  I0423 12:39:45.707015    21 net.cpp:122] Setting up Scale2
[2018-04-23 20:40:12]  I0423 12:39:45.707069    21 net.cpp:129] Top shape: 64 32 32 32 (2097152)
[2018-04-23 20:40:12]  I0423 12:39:45.707108    21 net.cpp:137] Memory required for data: 78643968
[2018-04-23 20:40:12]  I0423 12:39:45.707147    21 layer_factory.hpp:77] Creating layer ReLU2
[2018-04-23 20:40:12]  I0423 12:39:45.707201    21 net.cpp:84] Creating Layer ReLU2
[2018-04-23 20:40:12]  I0423 12:39:45.707237    21 net.cpp:406] ReLU2 <- Convolution2
[2018-04-23 20:40:12]  I0423 12:39:45.707271    21 net.cpp:367] ReLU2 -> Convolution2 (in-place)
[2018-04-23 20:40:12]  I0423 12:39:45.707576    21 net.cpp:122] Setting up ReLU2
[2018-04-23 20:40:12]  I0423 12:39:45.707631    21 net.cpp:129] Top shape: 64 32 32 32 (2097152)
[2018-04-23 20:40:12]  I0423 12:39:45.707670    21 net.cpp:137] Memory required for data: 87032576
[2018-04-23 20:40:12]  I0423 12:39:45.707695    21 layer_factory.hpp:77] Creating layer Convolution3
[2018-04-23 20:40:12]  I0423 12:39:45.707765    21 net.cpp:84] Creating Layer Convolution3
[2018-04-23 20:40:12]  I0423 12:39:45.707793    21 net.cpp:406] Convolution3 <- Convolution2
[2018-04-23 20:40:12]  I0423 12:39:45.707829    21 net.cpp:380] Convolution3 -> Convolution3
[2018-04-23 20:40:12]  I0423 12:39:45.709153    21 net.cpp:122] Setting up Convolution3
[2018-04-23 20:40:12]  I0423 12:39:45.709235    21 net.cpp:129] Top shape: 64 32 32 32 (2097152)
[2018-04-23 20:40:12]  I0423 12:39:45.709264    21 net.cpp:137] Memory required for data: 95421184
[2018-04-23 20:40:12]  I0423 12:39:45.709307    21 layer_factory.hpp:77] Creating layer BatchNorm3
[2018-04-23 20:40:12]  I0423 12:39:45.709383    21 net.cpp:84] Creating Layer BatchNorm3
[2018-04-23 20:40:12]  I0423 12:39:45.709424    21 net.cpp:406] BatchNorm3 <- Convolution3
[2018-04-23 20:40:12]  I0423 12:39:45.709553    21 net.cpp:367] BatchNorm3 -> Convolution3 (in-place)
[2018-04-23 20:40:12]  I0423 12:39:45.709897    21 net.cpp:122] Setting up BatchNorm3
[2018-04-23 20:40:12]  I0423 12:39:45.709952    21 net.cpp:129] Top shape: 64 32 32 32 (2097152)
[2018-04-23 20:40:12]  I0423 12:39:45.709981    21 net.cpp:137] Memory required for data: 103809792
[2018-04-23 20:40:12]  I0423 12:39:45.710038    21 layer_factory.hpp:77] Creating layer Scale3
[2018-04-23 20:40:12]  I0423 12:39:45.710085    21 net.cpp:84] Creating Layer Scale3
[2018-04-23 20:40:12]  I0423 12:39:45.710114    21 net.cpp:406] Scale3 <- Convolution3
[2018-04-23 20:40:13]  I0423 12:39:45.710165    21 net.cpp:367] Scale3 -> Convolution3 (in-place)
[2018-04-23 20:40:13]  I0423 12:39:45.710304    21 layer_factory.hpp:77] Creating layer Scale3
[2018-04-23 20:40:13]  I0423 12:39:45.710568    21 net.cpp:122] Setting up Scale3
[2018-04-23 20:40:13]  I0423 12:39:45.710623    21 net.cpp:129] Top shape: 64 32 32 32 (2097152)
[2018-04-23 20:40:13]  I0423 12:39:45.710650    21 net.cpp:137] Memory required for data: 112198400
[2018-04-23 20:40:13]  I0423 12:39:45.710690    21 layer_factory.hpp:77] Creating layer Eltwise1
[2018-04-23 20:40:13]  I0423 12:39:45.710729    21 net.cpp:84] Creating Layer Eltwise1
[2018-04-23 20:40:13]  I0423 12:39:45.710757    21 net.cpp:406] Eltwise1 <- Convolution1_ReLU1_0_split_1
[2018-04-23 20:40:13]  I0423 12:39:45.710795    21 net.cpp:406] Eltwise1 <- Convolution3
[2018-04-23 20:40:13]  I0423 12:39:45.710834    21 net.cpp:380] Eltwise1 -> Eltwise1
[2018-04-23 20:40:13]  I0423 12:39:45.711002    21 net.cpp:122] Setting up Eltwise1
[2018-04-23 20:40:13]  I0423 12:39:45.711063    21 net.cpp:129] Top shape: 64 32 32 32 (2097152)
[2018-04-23 20:40:13]  I0423 12:39:45.711112    21 net.cpp:137] Memory required for data: 120587008
[2018-04-23 20:40:13]  I0423 12:39:45.711144    21 layer_factory.hpp:77] Creating layer ReLU3
[2018-04-23 20:40:13]  I0423 12:39:45.711184    21 net.cpp:84] Creating Layer ReLU3
[2018-04-23 20:40:13]  I0423 12:39:45.711221    21 net.cpp:406] ReLU3 <- Eltwise1
[2018-04-23 20:40:13]  I0423 12:39:45.711257    21 net.cpp:367] ReLU3 -> Eltwise1 (in-place)
[2018-04-23 20:40:13]  I0423 12:39:45.711961    21 net.cpp:122] Setting up ReLU3
[2018-04-23 20:40:13]  I0423 12:39:45.712025    21 net.cpp:129] Top shape: 64 32 32 32 (2097152)
[2018-04-23 20:40:13]  I0423 12:39:45.712055    21 net.cpp:137] Memory required for data: 128975616
[2018-04-23 20:40:13]  I0423 12:39:45.712093    21 layer_factory.hpp:77] Creating layer Eltwise1_ReLU3_0_split
[2018-04-23 20:40:13]  I0423 12:39:45.712158    21 net.cpp:84] Creating Layer Eltwise1_ReLU3_0_split
[2018-04-23 20:40:13]  I0423 12:39:45.712198    21 net.cpp:406] Eltwise1_ReLU3_0_split <- Eltwise1
[2018-04-23 20:40:13]  I0423 12:39:45.712261    21 net.cpp:380] Eltwise1_ReLU3_0_split -> Eltwise1_ReLU3_0_split_0
[2018-04-23 20:40:13]  I0423 12:39:45.712303    21 net.cpp:380] Eltwise1_ReLU3_0_split -> Eltwise1_ReLU3_0_split_1
[2018-04-23 20:40:13]  I0423 12:39:45.712406    21 net.cpp:122] Setting up Eltwise1_ReLU3_0_split
[2018-04-23 20:40:13]  I0423 12:39:45.712467    21 net.cpp:129] Top shape: 64 32 32 32 (2097152)
[2018-04-23 20:40:13]  I0423 12:39:45.712538    21 net.cpp:129] Top shape: 64 32 32 32 (2097152)
[2018-04-23 20:40:13]  I0423 12:39:45.712590    21 net.cpp:137] Memory required for data: 145752832
[2018-04-23 20:40:13]  I0423 12:39:45.712622    21 layer_factory.hpp:77] Creating layer Convolution4
[2018-04-23 20:40:13]  I0423 12:39:45.712689    21 net.cpp:84] Creating Layer Convolution4
[2018-04-23 20:40:13]  I0423 12:39:45.712733    21 net.cpp:406] Convolution4 <- Eltwise1_ReLU3_0_split_0
[2018-04-23 20:40:13]  I0423 12:39:45.712769    21 net.cpp:380] Convolution4 -> Convolution4
[2018-04-23 20:40:13]  I0423 12:39:45.714428    21 net.cpp:122] Setting up Convolution4
[2018-04-23 20:40:13]  I0423 12:39:45.714505    21 net.cpp:129] Top shape: 64 32 32 32 (2097152)
[2018-04-23 20:40:13]  I0423 12:39:45.714550    21 net.cpp:137] Memory required for data: 154141440
[2018-04-23 20:40:13]  I0423 12:39:45.714581    21 layer_factory.hpp:77] Creating layer BatchNorm4
[2018-04-23 20:40:13]  I0423 12:39:45.714643    21 net.cpp:84] Creating Layer BatchNorm4
[2018-04-23 20:40:13]  I0423 12:39:45.714679    21 net.cpp:406] BatchNorm4 <- Convolution4
[2018-04-23 20:40:13]  I0423 12:39:45.714746    21 net.cpp:367] BatchNorm4 -> Convolution4 (in-place)
[2018-04-23 20:40:13]  I0423 12:39:45.715097    21 net.cpp:122] Setting up BatchNorm4
[2018-04-23 20:40:13]  I0423 12:39:45.715152    21 net.cpp:129] Top shape: 64 32 32 32 (2097152)
[2018-04-23 20:40:13]  I0423 12:39:45.715189    21 net.cpp:137] Memory required for data: 162530048
[2018-04-23 20:40:13]  I0423 12:39:45.715241    21 layer_factory.hpp:77] Creating layer Scale4
[2018-04-23 20:40:13]  I0423 12:39:45.715297    21 net.cpp:84] Creating Layer Scale4
[2018-04-23 20:40:13]  I0423 12:39:45.715328    21 net.cpp:406] Scale4 <- Convolution4
[2018-04-23 20:40:13]  I0423 12:39:45.715358    21 net.cpp:367] Scale4 -> Convolution4 (in-place)
[2018-04-23 20:40:13]  I0423 12:39:45.715500    21 layer_factory.hpp:77] Creating layer Scale4
[2018-04-23 20:40:13]  I0423 12:39:45.715760    21 net.cpp:122] Setting up Scale4
[2018-04-23 20:40:13]  I0423 12:39:45.715816    21 net.cpp:129] Top shape: 64 32 32 32 (2097152)
[2018-04-23 20:40:13]  I0423 12:39:45.715843    21 net.cpp:137] Memory required for data: 170918656
[2018-04-23 20:40:13]  I0423 12:39:45.715881    21 layer_factory.hpp:77] Creating layer ReLU4
[2018-04-23 20:40:13]  I0423 12:39:45.715921    21 net.cpp:84] Creating Layer ReLU4
[2018-04-23 20:40:13]  I0423 12:39:45.715948    21 net.cpp:406] ReLU4 <- Convolution4
[2018-04-23 20:40:13]  I0423 12:39:45.715998    21 net.cpp:367] ReLU4 -> Convolution4 (in-place)
[2018-04-23 20:40:13]  I0423 12:39:45.716372    21 net.cpp:122] Setting up ReLU4
[2018-04-23 20:40:13]  I0423 12:39:45.716430    21 net.cpp:129] Top shape: 64 32 32 32 (2097152)
[2018-04-23 20:40:13]  I0423 12:39:45.716460    21 net.cpp:137] Memory required for data: 179307264
[2018-04-23 20:40:13]  I0423 12:39:45.716527    21 layer_factory.hpp:77] Creating layer Convolution5
[2018-04-23 20:40:13]  I0423 12:39:45.716608    21 net.cpp:84] Creating Layer Convolution5
[2018-04-23 20:40:14]  I0423 12:39:45.716657    21 net.cpp:406] Convolution5 <- Convolution4
[2018-04-23 20:40:14]  I0423 12:39:45.716717    21 net.cpp:380] Convolution5 -> Convolution5
[2018-04-23 20:40:14]  I0423 12:39:45.718386    21 net.cpp:122] Setting up Convolution5
[2018-04-23 20:40:14]  I0423 12:39:45.718456    21 net.cpp:129] Top shape: 64 32 32 32 (2097152)
[2018-04-23 20:40:14]  I0423 12:39:45.718487    21 net.cpp:137] Memory required for data: 187695872
[2018-04-23 20:40:14]  I0423 12:39:45.718544    21 layer_factory.hpp:77] Creating layer BatchNorm5
[2018-04-23 20:40:14]  I0423 12:39:45.718611    21 net.cpp:84] Creating Layer BatchNorm5
[2018-04-23 20:40:14]  I0423 12:39:45.718658    21 net.cpp:406] BatchNorm5 <- Convolution5
[2018-04-23 20:40:14]  I0423 12:39:45.718710    21 net.cpp:367] BatchNorm5 -> Convolution5 (in-place)
[2018-04-23 20:40:14]  I0423 12:39:45.719058    21 net.cpp:122] Setting up BatchNorm5
[2018-04-23 20:40:14]  I0423 12:39:45.719111    21 net.cpp:129] Top shape: 64 32 32 32 (2097152)
[2018-04-23 20:40:14]  I0423 12:39:45.719139    21 net.cpp:137] Memory required for data: 196084480
[2018-04-23 20:40:14]  I0423 12:39:45.719187    21 layer_factory.hpp:77] Creating layer Scale5
[2018-04-23 20:40:14]  I0423 12:39:45.719229    21 net.cpp:84] Creating Layer Scale5
[2018-04-23 20:40:14]  I0423 12:39:45.719276    21 net.cpp:406] Scale5 <- Convolution5
[2018-04-23 20:40:14]  I0423 12:39:45.719322    21 net.cpp:367] Scale5 -> Convolution5 (in-place)
[2018-04-23 20:40:14]  I0423 12:39:45.719449    21 layer_factory.hpp:77] Creating layer Scale5
[2018-04-23 20:40:14]  I0423 12:39:45.719715    21 net.cpp:122] Setting up Scale5
[2018-04-23 20:40:14]  I0423 12:39:45.719779    21 net.cpp:129] Top shape: 64 32 32 32 (2097152)
[2018-04-23 20:40:14]  I0423 12:39:45.719820    21 net.cpp:137] Memory required for data: 204473088
[2018-04-23 20:40:14]  I0423 12:39:45.719857    21 layer_factory.hpp:77] Creating layer Eltwise2
[2018-04-23 20:40:14]  I0423 12:39:45.719889    21 net.cpp:84] Creating Layer Eltwise2
[2018-04-23 20:40:14]  I0423 12:39:45.719916    21 net.cpp:406] Eltwise2 <- Eltwise1_ReLU3_0_split_1
[2018-04-23 20:40:14]  I0423 12:39:45.719959    21 net.cpp:406] Eltwise2 <- Convolution5
[2018-04-23 20:40:14]  I0423 12:39:45.720000    21 net.cpp:380] Eltwise2 -> Eltwise2
[2018-04-23 20:40:14]  I0423 12:39:45.720098    21 net.cpp:122] Setting up Eltwise2
[2018-04-23 20:40:14]  I0423 12:39:45.720147    21 net.cpp:129] Top shape: 64 32 32 32 (2097152)
[2018-04-23 20:40:14]  I0423 12:39:45.720183    21 net.cpp:137] Memory required for data: 212861696
[2018-04-23 20:40:14]  I0423 12:39:45.720211    21 layer_factory.hpp:77] Creating layer ReLU5
[2018-04-23 20:40:14]  I0423 12:39:45.720243    21 net.cpp:84] Creating Layer ReLU5
[2018-04-23 20:40:14]  I0423 12:39:45.720270    21 net.cpp:406] ReLU5 <- Eltwise2
[2018-04-23 20:40:14]  I0423 12:39:45.720299    21 net.cpp:367] ReLU5 -> Eltwise2 (in-place)
[2018-04-23 20:40:14]  I0423 12:39:45.720685    21 net.cpp:122] Setting up ReLU5
[2018-04-23 20:40:14]  I0423 12:39:45.720737    21 net.cpp:129] Top shape: 64 32 32 32 (2097152)
[2018-04-23 20:40:14]  I0423 12:39:45.720767    21 net.cpp:137] Memory required for data: 221250304
[2018-04-23 20:40:14]  I0423 12:39:45.720808    21 layer_factory.hpp:77] Creating layer Eltwise2_ReLU5_0_split
[2018-04-23 20:40:14]  I0423 12:39:45.720850    21 net.cpp:84] Creating Layer Eltwise2_ReLU5_0_split
[2018-04-23 20:40:14]  I0423 12:39:45.720901    21 net.cpp:406] Eltwise2_ReLU5_0_split <- Eltwise2
[2018-04-23 20:40:14]  I0423 12:39:45.720944    21 net.cpp:380] Eltwise2_ReLU5_0_split -> Eltwise2_ReLU5_0_split_0
[2018-04-23 20:40:14]  I0423 12:39:45.720989    21 net.cpp:380] Eltwise2_ReLU5_0_split -> Eltwise2_ReLU5_0_split_1
[2018-04-23 20:40:14]  I0423 12:39:45.721144    21 net.cpp:122] Setting up Eltwise2_ReLU5_0_split
[2018-04-23 20:40:14]  I0423 12:39:45.721195    21 net.cpp:129] Top shape: 64 32 32 32 (2097152)
[2018-04-23 20:40:14]  I0423 12:39:45.721225    21 net.cpp:129] Top shape: 64 32 32 32 (2097152)
[2018-04-23 20:40:14]  I0423 12:39:45.721262    21 net.cpp:137] Memory required for data: 238027520
[2018-04-23 20:40:14]  I0423 12:39:45.721297    21 layer_factory.hpp:77] Creating layer Convolution6
[2018-04-23 20:40:14]  I0423 12:39:45.721388    21 net.cpp:84] Creating Layer Convolution6
[2018-04-23 20:40:14]  I0423 12:39:45.721436    21 net.cpp:406] Convolution6 <- Eltwise2_ReLU5_0_split_0
[2018-04-23 20:40:14]  I0423 12:39:45.721470    21 net.cpp:380] Convolution6 -> Convolution6
[2018-04-23 20:40:14]  I0423 12:39:45.723119    21 net.cpp:122] Setting up Convolution6
[2018-04-23 20:40:14]  I0423 12:39:45.723186    21 net.cpp:129] Top shape: 64 32 32 32 (2097152)
[2018-04-23 20:40:14]  I0423 12:39:45.723217    21 net.cpp:137] Memory required for data: 246416128
[2018-04-23 20:40:14]  I0423 12:39:45.723258    21 layer_factory.hpp:77] Creating layer BatchNorm6
[2018-04-23 20:40:14]  I0423 12:39:45.723320    21 net.cpp:84] Creating Layer BatchNorm6
[2018-04-23 20:40:14]  I0423 12:39:45.723358    21 net.cpp:406] BatchNorm6 <- Convolution6
[2018-04-23 20:40:14]  I0423 12:39:45.723413    21 net.cpp:367] BatchNorm6 -> Convolution6 (in-place)
[2018-04-23 20:40:14]  I0423 12:39:45.723788    21 net.cpp:122] Setting up BatchNorm6
[2018-04-23 20:40:14]  I0423 12:39:45.723845    21 net.cpp:129] Top shape: 64 32 32 32 (2097152)
[2018-04-23 20:40:14]  I0423 12:39:45.723873    21 net.cpp:137] Memory required for data: 254804736
[2018-04-23 20:40:14]  I0423 12:39:45.723906    21 layer_factory.hpp:77] Creating layer Scale6
[2018-04-23 20:40:14]  I0423 12:39:45.723942    21 net.cpp:84] Creating Layer Scale6
[2018-04-23 20:40:14]  I0423 12:39:45.723968    21 net.cpp:406] Scale6 <- Convolution6
[2018-04-23 20:40:14]  I0423 12:39:45.724016    21 net.cpp:367] Scale6 -> Convolution6 (in-place)
[2018-04-23 20:40:14]  I0423 12:39:45.724148    21 layer_factory.hpp:77] Creating layer Scale6
[2018-04-23 20:40:14]  I0423 12:39:45.724413    21 net.cpp:122] Setting up Scale6
[2018-04-23 20:40:14]  I0423 12:39:45.724467    21 net.cpp:129] Top shape: 64 32 32 32 (2097152)
[2018-04-23 20:40:14]  I0423 12:39:45.724504    21 net.cpp:137] Memory required for data: 263193344
[2018-04-23 20:40:14]  I0423 12:39:45.724551    21 layer_factory.hpp:77] Creating layer ReLU6
[2018-04-23 20:40:14]  I0423 12:39:45.724602    21 net.cpp:84] Creating Layer ReLU6
[2018-04-23 20:40:14]  I0423 12:39:45.724630    21 net.cpp:406] ReLU6 <- Convolution6
[2018-04-23 20:40:14]  I0423 12:39:45.724679    21 net.cpp:367] ReLU6 -> Convolution6 (in-place)
[2018-04-23 20:40:14]  I0423 12:39:45.725198    21 net.cpp:122] Setting up ReLU6
[2018-04-23 20:40:14]  I0423 12:39:45.725255    21 net.cpp:129] Top shape: 64 32 32 32 (2097152)
[2018-04-23 20:40:14]  I0423 12:39:45.725296    21 net.cpp:137] Memory required for data: 271581952
[2018-04-23 20:40:14]  I0423 12:39:45.725329    21 layer_factory.hpp:77] Creating layer Convolution7
[2018-04-23 20:40:15]  I0423 12:39:45.725450    21 net.cpp:84] Creating Layer Convolution7
[2018-04-23 20:40:15]  I0423 12:39:45.725491    21 net.cpp:406] Convolution7 <- Convolution6
[2018-04-23 20:40:15]  I0423 12:39:45.725561    21 net.cpp:380] Convolution7 -> Convolution7
[2018-04-23 20:40:15]  I0423 12:39:45.727273    21 net.cpp:122] Setting up Convolution7
[2018-04-23 20:40:15]  I0423 12:39:45.727337    21 net.cpp:129] Top shape: 64 32 32 32 (2097152)
[2018-04-23 20:40:15]  I0423 12:39:45.727370    21 net.cpp:137] Memory required for data: 279970560
[2018-04-23 20:40:15]  I0423 12:39:45.727421    21 layer_factory.hpp:77] Creating layer BatchNorm7
[2018-04-23 20:40:15]  I0423 12:39:45.727531    21 net.cpp:84] Creating Layer BatchNorm7
[2018-04-23 20:40:15]  I0423 12:39:45.727577    21 net.cpp:406] BatchNorm7 <- Convolution7
[2018-04-23 20:40:15]  I0423 12:39:45.727620    21 net.cpp:367] BatchNorm7 -> Convolution7 (in-place)
[2018-04-23 20:40:15]  I0423 12:39:45.727982    21 net.cpp:122] Setting up BatchNorm7
[2018-04-23 20:40:15]  I0423 12:39:45.728034    21 net.cpp:129] Top shape: 64 32 32 32 (2097152)
[2018-04-23 20:40:15]  I0423 12:39:45.728071    21 net.cpp:137] Memory required for data: 288359168
[2018-04-23 20:40:15]  I0423 12:39:45.728113    21 layer_factory.hpp:77] Creating layer Scale7
[2018-04-23 20:40:15]  I0423 12:39:45.728168    21 net.cpp:84] Creating Layer Scale7
[2018-04-23 20:40:15]  I0423 12:39:45.728200    21 net.cpp:406] Scale7 <- Convolution7
[2018-04-23 20:40:15]  I0423 12:39:45.728230    21 net.cpp:367] Scale7 -> Convolution7 (in-place)
[2018-04-23 20:40:15]  I0423 12:39:45.728334    21 layer_factory.hpp:77] Creating layer Scale7
[2018-04-23 20:40:15]  I0423 12:39:45.731258    21 net.cpp:122] Setting up Scale7
[2018-04-23 20:40:15]  I0423 12:39:45.731320    21 net.cpp:129] Top shape: 64 32 32 32 (2097152)
[2018-04-23 20:40:15]  I0423 12:39:45.731349    21 net.cpp:137] Memory required for data: 296747776
[2018-04-23 20:40:15]  I0423 12:39:45.731377    21 layer_factory.hpp:77] Creating layer Eltwise3
[2018-04-23 20:40:15]  I0423 12:39:45.731415    21 net.cpp:84] Creating Layer Eltwise3
[2018-04-23 20:40:15]  I0423 12:39:45.731452    21 net.cpp:406] Eltwise3 <- Eltwise2_ReLU5_0_split_1
[2018-04-23 20:40:15]  I0423 12:39:45.731490    21 net.cpp:406] Eltwise3 <- Convolution7
[2018-04-23 20:40:15]  I0423 12:39:45.731566    21 net.cpp:380] Eltwise3 -> Eltwise3
[2018-04-23 20:40:15]  I0423 12:39:45.731663    21 net.cpp:122] Setting up Eltwise3
[2018-04-23 20:40:15]  I0423 12:39:45.731716    21 net.cpp:129] Top shape: 64 32 32 32 (2097152)
[2018-04-23 20:40:15]  I0423 12:39:45.731742    21 net.cpp:137] Memory required for data: 305136384
[2018-04-23 20:40:15]  I0423 12:39:45.731776    21 layer_factory.hpp:77] Creating layer ReLU7
[2018-04-23 20:40:15]  I0423 12:39:45.731822    21 net.cpp:84] Creating Layer ReLU7
[2018-04-23 20:40:15]  I0423 12:39:45.731854    21 net.cpp:406] ReLU7 <- Eltwise3
[2018-04-23 20:40:15]  I0423 12:39:45.731894    21 net.cpp:367] ReLU7 -> Eltwise3 (in-place)
[2018-04-23 20:40:15]  I0423 12:39:45.732275    21 net.cpp:122] Setting up ReLU7
[2018-04-23 20:40:15]  I0423 12:39:45.732331    21 net.cpp:129] Top shape: 64 32 32 32 (2097152)
[2018-04-23 20:40:15]  I0423 12:39:45.732362    21 net.cpp:137] Memory required for data: 313524992
[2018-04-23 20:40:15]  I0423 12:39:45.732399    21 layer_factory.hpp:77] Creating layer Eltwise3_ReLU7_0_split
[2018-04-23 20:40:15]  I0423 12:39:45.732451    21 net.cpp:84] Creating Layer Eltwise3_ReLU7_0_split
[2018-04-23 20:40:15]  I0423 12:39:45.732523    21 net.cpp:406] Eltwise3_ReLU7_0_split <- Eltwise3
[2018-04-23 20:40:15]  I0423 12:39:45.732578    21 net.cpp:380] Eltwise3_ReLU7_0_split -> Eltwise3_ReLU7_0_split_0
[2018-04-23 20:40:15]  I0423 12:39:45.732632    21 net.cpp:380] Eltwise3_ReLU7_0_split -> Eltwise3_ReLU7_0_split_1
[2018-04-23 20:40:15]  I0423 12:39:45.732764    21 net.cpp:122] Setting up Eltwise3_ReLU7_0_split
[2018-04-23 20:40:15]  I0423 12:39:45.732831    21 net.cpp:129] Top shape: 64 32 32 32 (2097152)
[2018-04-23 20:40:15]  I0423 12:39:45.732872    21 net.cpp:129] Top shape: 64 32 32 32 (2097152)
[2018-04-23 20:40:15]  I0423 12:39:45.732903    21 net.cpp:137] Memory required for data: 330302208
[2018-04-23 20:40:15]  I0423 12:39:45.732959    21 layer_factory.hpp:77] Creating layer Convolution8
[2018-04-23 20:40:15]  I0423 12:39:45.733027    21 net.cpp:84] Creating Layer Convolution8
[2018-04-23 20:40:15]  I0423 12:39:45.733083    21 net.cpp:406] Convolution8 <- Eltwise3_ReLU7_0_split_0
[2018-04-23 20:40:15]  I0423 12:39:45.733146    21 net.cpp:380] Convolution8 -> Convolution8
[2018-04-23 20:40:15]  I0423 12:39:45.735030    21 net.cpp:122] Setting up Convolution8
[2018-04-23 20:40:15]  I0423 12:39:45.735124    21 net.cpp:129] Top shape: 64 64 16 16 (1048576)
[2018-04-23 20:40:15]  I0423 12:39:45.735159    21 net.cpp:137] Memory required for data: 334496512
[2018-04-23 20:40:15]  I0423 12:39:45.735210    21 layer_factory.hpp:77] Creating layer BatchNorm8
[2018-04-23 20:40:15]  I0423 12:39:45.735242    21 net.cpp:84] Creating Layer BatchNorm8
[2018-04-23 20:40:15]  I0423 12:39:45.735287    21 net.cpp:406] BatchNorm8 <- Convolution8
[2018-04-23 20:40:15]  I0423 12:39:45.735332    21 net.cpp:367] BatchNorm8 -> Convolution8 (in-place)
[2018-04-23 20:40:15]  I0423 12:39:45.735705    21 net.cpp:122] Setting up BatchNorm8
[2018-04-23 20:40:15]  I0423 12:39:45.735760    21 net.cpp:129] Top shape: 64 64 16 16 (1048576)
[2018-04-23 20:40:15]  I0423 12:39:45.735792    21 net.cpp:137] Memory required for data: 338690816
[2018-04-23 20:40:15]  I0423 12:39:45.735838    21 layer_factory.hpp:77] Creating layer Scale8
[2018-04-23 20:40:15]  I0423 12:39:45.735900    21 net.cpp:84] Creating Layer Scale8
[2018-04-23 20:40:15]  I0423 12:39:45.735934    21 net.cpp:406] Scale8 <- Convolution8
[2018-04-23 20:40:15]  I0423 12:39:45.735962    21 net.cpp:367] Scale8 -> Convolution8 (in-place)
[2018-04-23 20:40:15]  I0423 12:39:45.736068    21 layer_factory.hpp:77] Creating layer Scale8
[2018-04-23 20:40:15]  I0423 12:39:45.736337    21 net.cpp:122] Setting up Scale8
[2018-04-23 20:40:15]  I0423 12:39:45.736387    21 net.cpp:129] Top shape: 64 64 16 16 (1048576)
[2018-04-23 20:40:15]  I0423 12:39:45.736413    21 net.cpp:137] Memory required for data: 342885120
[2018-04-23 20:40:15]  I0423 12:39:45.736474    21 layer_factory.hpp:77] Creating layer Convolution9
[2018-04-23 20:40:15]  I0423 12:39:45.736557    21 net.cpp:84] Creating Layer Convolution9
[2018-04-23 20:40:15]  I0423 12:39:45.736593    21 net.cpp:406] Convolution9 <- Eltwise3_ReLU7_0_split_1
[2018-04-23 20:40:15]  I0423 12:39:45.736632    21 net.cpp:380] Convolution9 -> Convolution9
[2018-04-23 20:40:15]  I0423 12:39:45.741873    21 net.cpp:122] Setting up Convolution9
[2018-04-23 20:40:15]  I0423 12:39:45.741948    21 net.cpp:129] Top shape: 64 64 16 16 (1048576)
[2018-04-23 20:40:16]  I0423 12:39:45.741981    21 net.cpp:137] Memory required for data: 347079424
[2018-04-23 20:40:16]  I0423 12:39:45.742029    21 layer_factory.hpp:77] Creating layer BatchNorm9
[2018-04-23 20:40:16]  I0423 12:39:45.742082    21 net.cpp:84] Creating Layer BatchNorm9
[2018-04-23 20:40:16]  I0423 12:39:45.742120    21 net.cpp:406] BatchNorm9 <- Convolution9
[2018-04-23 20:40:16]  I0423 12:39:45.742182    21 net.cpp:367] BatchNorm9 -> Convolution9 (in-place)
[2018-04-23 20:40:16]  I0423 12:39:45.742573    21 net.cpp:122] Setting up BatchNorm9
[2018-04-23 20:40:16]  I0423 12:39:45.742624    21 net.cpp:129] Top shape: 64 64 16 16 (1048576)
[2018-04-23 20:40:16]  I0423 12:39:45.742650    21 net.cpp:137] Memory required for data: 351273728
[2018-04-23 20:40:16]  I0423 12:39:45.742681    21 layer_factory.hpp:77] Creating layer Scale9
[2018-04-23 20:40:16]  I0423 12:39:45.742712    21 net.cpp:84] Creating Layer Scale9
[2018-04-23 20:40:16]  I0423 12:39:45.742748    21 net.cpp:406] Scale9 <- Convolution9
[2018-04-23 20:40:16]  I0423 12:39:45.742775    21 net.cpp:367] Scale9 -> Convolution9 (in-place)
[2018-04-23 20:40:16]  I0423 12:39:45.743130    21 layer_factory.hpp:77] Creating layer Scale9
[2018-04-23 20:40:16]  I0423 12:39:45.743427    21 net.cpp:122] Setting up Scale9
[2018-04-23 20:40:16]  I0423 12:39:45.743481    21 net.cpp:129] Top shape: 64 64 16 16 (1048576)
[2018-04-23 20:40:16]  I0423 12:39:45.743523    21 net.cpp:137] Memory required for data: 355468032
[2018-04-23 20:40:16]  I0423 12:39:45.743566    21 layer_factory.hpp:77] Creating layer ReLU8
[2018-04-23 20:40:16]  I0423 12:39:45.743619    21 net.cpp:84] Creating Layer ReLU8
[2018-04-23 20:40:16]  I0423 12:39:45.743669    21 net.cpp:406] ReLU8 <- Convolution9
[2018-04-23 20:40:16]  I0423 12:39:45.743719    21 net.cpp:367] ReLU8 -> Convolution9 (in-place)
[2018-04-23 20:40:16]  I0423 12:39:45.744112    21 net.cpp:122] Setting up ReLU8
[2018-04-23 20:40:16]  I0423 12:39:45.744164    21 net.cpp:129] Top shape: 64 64 16 16 (1048576)
[2018-04-23 20:40:16]  I0423 12:39:45.744192    21 net.cpp:137] Memory required for data: 359662336
[2018-04-23 20:40:16]  I0423 12:39:45.744236    21 layer_factory.hpp:77] Creating layer Convolution10
[2018-04-23 20:40:16]  I0423 12:39:45.744305    21 net.cpp:84] Creating Layer Convolution10
[2018-04-23 20:40:16]  I0423 12:39:45.744339    21 net.cpp:406] Convolution10 <- Convolution9
[2018-04-23 20:40:16]  I0423 12:39:45.744412    21 net.cpp:380] Convolution10 -> Convolution10
[2018-04-23 20:40:16]  I0423 12:39:45.746354    21 net.cpp:122] Setting up Convolution10
[2018-04-23 20:40:16]  I0423 12:39:45.746424    21 net.cpp:129] Top shape: 64 64 16 16 (1048576)
[2018-04-23 20:40:16]  I0423 12:39:45.746456    21 net.cpp:137] Memory required for data: 363856640
[2018-04-23 20:40:16]  I0423 12:39:45.746588    21 layer_factory.hpp:77] Creating layer BatchNorm10
[2018-04-23 20:40:16]  I0423 12:39:45.746645    21 net.cpp:84] Creating Layer BatchNorm10
[2018-04-23 20:40:16]  I0423 12:39:45.746675    21 net.cpp:406] BatchNorm10 <- Convolution10
[2018-04-23 20:40:16]  I0423 12:39:45.746760    21 net.cpp:367] BatchNorm10 -> Convolution10 (in-place)
[2018-04-23 20:40:16]  I0423 12:39:45.747164    21 net.cpp:122] Setting up BatchNorm10
[2018-04-23 20:40:16]  I0423 12:39:45.747217    21 net.cpp:129] Top shape: 64 64 16 16 (1048576)
[2018-04-23 20:40:16]  I0423 12:39:45.747244    21 net.cpp:137] Memory required for data: 368050944
[2018-04-23 20:40:16]  I0423 12:39:45.747285    21 layer_factory.hpp:77] Creating layer Scale10
[2018-04-23 20:40:16]  I0423 12:39:45.747325    21 net.cpp:84] Creating Layer Scale10
[2018-04-23 20:40:16]  I0423 12:39:45.747354    21 net.cpp:406] Scale10 <- Convolution10
[2018-04-23 20:40:16]  I0423 12:39:45.747392    21 net.cpp:367] Scale10 -> Convolution10 (in-place)
[2018-04-23 20:40:16]  I0423 12:39:45.747546    21 layer_factory.hpp:77] Creating layer Scale10
[2018-04-23 20:40:16]  I0423 12:39:45.747905    21 net.cpp:122] Setting up Scale10
[2018-04-23 20:40:16]  I0423 12:39:45.747959    21 net.cpp:129] Top shape: 64 64 16 16 (1048576)
[2018-04-23 20:40:16]  I0423 12:39:45.747987    21 net.cpp:137] Memory required for data: 372245248
[2018-04-23 20:40:16]  I0423 12:39:45.748025    21 layer_factory.hpp:77] Creating layer Eltwise4
[2018-04-23 20:40:16]  I0423 12:39:45.748075    21 net.cpp:84] Creating Layer Eltwise4
[2018-04-23 20:40:16]  I0423 12:39:45.748132    21 net.cpp:406] Eltwise4 <- Convolution8
[2018-04-23 20:40:16]  I0423 12:39:45.748179    21 net.cpp:406] Eltwise4 <- Convolution10
[2018-04-23 20:40:16]  I0423 12:39:45.748229    21 net.cpp:380] Eltwise4 -> Eltwise4
[2018-04-23 20:40:16]  I0423 12:39:45.748308    21 net.cpp:122] Setting up Eltwise4
[2018-04-23 20:40:16]  I0423 12:39:45.748358    21 net.cpp:129] Top shape: 64 64 16 16 (1048576)
[2018-04-23 20:40:16]  I0423 12:39:45.748385    21 net.cpp:137] Memory required for data: 376439552
[2018-04-23 20:40:16]  I0423 12:39:45.748421    21 layer_factory.hpp:77] Creating layer ReLU9
[2018-04-23 20:40:16]  I0423 12:39:45.748461    21 net.cpp:84] Creating Layer ReLU9
[2018-04-23 20:40:16]  I0423 12:39:45.748515    21 net.cpp:406] ReLU9 <- Eltwise4
[2018-04-23 20:40:16]  I0423 12:39:45.748556    21 net.cpp:367] ReLU9 -> Eltwise4 (in-place)
[2018-04-23 20:40:16]  I0423 12:39:45.748916    21 net.cpp:122] Setting up ReLU9
[2018-04-23 20:40:16]  I0423 12:39:45.748975    21 net.cpp:129] Top shape: 64 64 16 16 (1048576)
[2018-04-23 20:40:16]  I0423 12:39:45.749004    21 net.cpp:137] Memory required for data: 380633856
[2018-04-23 20:40:16]  I0423 12:39:45.749028    21 layer_factory.hpp:77] Creating layer Eltwise4_ReLU9_0_split
[2018-04-23 20:40:16]  I0423 12:39:45.749101    21 net.cpp:84] Creating Layer Eltwise4_ReLU9_0_split
[2018-04-23 20:40:16]  I0423 12:39:45.749135    21 net.cpp:406] Eltwise4_ReLU9_0_split <- Eltwise4
[2018-04-23 20:40:16]  I0423 12:39:45.749197    21 net.cpp:380] Eltwise4_ReLU9_0_split -> Eltwise4_ReLU9_0_split_0
[2018-04-23 20:40:16]  I0423 12:39:45.749251    21 net.cpp:380] Eltwise4_ReLU9_0_split -> Eltwise4_ReLU9_0_split_1
[2018-04-23 20:40:16]  I0423 12:39:45.749408    21 net.cpp:122] Setting up Eltwise4_ReLU9_0_split
[2018-04-23 20:40:16]  I0423 12:39:45.749464    21 net.cpp:129] Top shape: 64 64 16 16 (1048576)
[2018-04-23 20:40:16]  I0423 12:39:45.749503    21 net.cpp:129] Top shape: 64 64 16 16 (1048576)
[2018-04-23 20:40:16]  I0423 12:39:45.749547    21 net.cpp:137] Memory required for data: 389022464
[2018-04-23 20:40:17]  I0423 12:39:45.749593    21 layer_factory.hpp:77] Creating layer Convolution11
[2018-04-23 20:40:17]  I0423 12:39:45.749649    21 net.cpp:84] Creating Layer Convolution11
[2018-04-23 20:40:17]  I0423 12:39:45.749686    21 net.cpp:406] Convolution11 <- Eltwise4_ReLU9_0_split_0
[2018-04-23 20:40:17]  I0423 12:39:45.749742    21 net.cpp:380] Convolution11 -> Convolution11
[2018-04-23 20:40:17]  I0423 12:39:45.751667    21 net.cpp:122] Setting up Convolution11
[2018-04-23 20:40:17]  I0423 12:39:45.751734    21 net.cpp:129] Top shape: 64 64 16 16 (1048576)
[2018-04-23 20:40:17]  I0423 12:39:45.751765    21 net.cpp:137] Memory required for data: 393216768
[2018-04-23 20:40:17]  I0423 12:39:45.751807    21 layer_factory.hpp:77] Creating layer BatchNorm11
[2018-04-23 20:40:17]  I0423 12:39:45.751870    21 net.cpp:84] Creating Layer BatchNorm11
[2018-04-23 20:40:17]  I0423 12:39:45.751909    21 net.cpp:406] BatchNorm11 <- Convolution11
[2018-04-23 20:40:17]  I0423 12:39:45.751971    21 net.cpp:367] BatchNorm11 -> Convolution11 (in-place)
[2018-04-23 20:40:17]  I0423 12:39:45.752341    21 net.cpp:122] Setting up BatchNorm11
[2018-04-23 20:40:17]  I0423 12:39:45.752408    21 net.cpp:129] Top shape: 64 64 16 16 (1048576)
[2018-04-23 20:40:17]  I0423 12:39:45.752434    21 net.cpp:137] Memory required for data: 397411072
[2018-04-23 20:40:17]  I0423 12:39:45.752470    21 layer_factory.hpp:77] Creating layer Scale11
[2018-04-23 20:40:17]  I0423 12:39:45.752526    21 net.cpp:84] Creating Layer Scale11
[2018-04-23 20:40:17]  I0423 12:39:45.752564    21 net.cpp:406] Scale11 <- Convolution11
[2018-04-23 20:40:17]  I0423 12:39:45.752604    21 net.cpp:367] Scale11 -> Convolution11 (in-place)
[2018-04-23 20:40:17]  I0423 12:39:45.752751    21 layer_factory.hpp:77] Creating layer Scale11
[2018-04-23 20:40:17]  I0423 12:39:45.753003    21 net.cpp:122] Setting up Scale11
[2018-04-23 20:40:17]  I0423 12:39:45.753053    21 net.cpp:129] Top shape: 64 64 16 16 (1048576)
[2018-04-23 20:40:17]  I0423 12:39:45.753080    21 net.cpp:137] Memory required for data: 401605376
[2018-04-23 20:40:17]  I0423 12:39:45.753119    21 layer_factory.hpp:77] Creating layer ReLU10
[2018-04-23 20:40:17]  I0423 12:39:45.753165    21 net.cpp:84] Creating Layer ReLU10
[2018-04-23 20:40:17]  I0423 12:39:45.753195    21 net.cpp:406] ReLU10 <- Convolution11
[2018-04-23 20:40:17]  I0423 12:39:45.753248    21 net.cpp:367] ReLU10 -> Convolution11 (in-place)
[2018-04-23 20:40:17]  I0423 12:39:45.753847    21 net.cpp:122] Setting up ReLU10
[2018-04-23 20:40:17]  I0423 12:39:45.753912    21 net.cpp:129] Top shape: 64 64 16 16 (1048576)
[2018-04-23 20:40:17]  I0423 12:39:45.753954    21 net.cpp:137] Memory required for data: 405799680
[2018-04-23 20:40:17]  I0423 12:39:45.753991    21 layer_factory.hpp:77] Creating layer Convolution12
[2018-04-23 20:40:17]  I0423 12:39:45.754082    21 net.cpp:84] Creating Layer Convolution12
[2018-04-23 20:40:17]  I0423 12:39:45.754128    21 net.cpp:406] Convolution12 <- Convolution11
[2018-04-23 20:40:17]  I0423 12:39:45.754235    21 net.cpp:380] Convolution12 -> Convolution12
[2018-04-23 20:40:17]  I0423 12:39:45.756291    21 net.cpp:122] Setting up Convolution12
[2018-04-23 20:40:17]  I0423 12:39:45.756382    21 net.cpp:129] Top shape: 64 64 16 16 (1048576)
[2018-04-23 20:40:17]  I0423 12:39:45.756428    21 net.cpp:137] Memory required for data: 409993984
[2018-04-23 20:40:17]  I0423 12:39:45.756470    21 layer_factory.hpp:77] Creating layer BatchNorm12
[2018-04-23 20:40:17]  I0423 12:39:45.756531    21 net.cpp:84] Creating Layer BatchNorm12
[2018-04-23 20:40:17]  I0423 12:39:45.756572    21 net.cpp:406] BatchNorm12 <- Convolution12
[2018-04-23 20:40:17]  I0423 12:39:45.756628    21 net.cpp:367] BatchNorm12 -> Convolution12 (in-place)
[2018-04-23 20:40:17]  I0423 12:39:45.756978    21 net.cpp:122] Setting up BatchNorm12
[2018-04-23 20:40:17]  I0423 12:39:45.757031    21 net.cpp:129] Top shape: 64 64 16 16 (1048576)
[2018-04-23 20:40:17]  I0423 12:39:45.757057    21 net.cpp:137] Memory required for data: 414188288
[2018-04-23 20:40:17]  I0423 12:39:45.757087    21 layer_factory.hpp:77] Creating layer Scale12
[2018-04-23 20:40:17]  I0423 12:39:45.757117    21 net.cpp:84] Creating Layer Scale12
[2018-04-23 20:40:17]  I0423 12:39:45.757154    21 net.cpp:406] Scale12 <- Convolution12
[2018-04-23 20:40:17]  I0423 12:39:45.757181    21 net.cpp:367] Scale12 -> Convolution12 (in-place)
[2018-04-23 20:40:17]  I0423 12:39:45.757302    21 layer_factory.hpp:77] Creating layer Scale12
[2018-04-23 20:40:17]  I0423 12:39:45.757580    21 net.cpp:122] Setting up Scale12
[2018-04-23 20:40:17]  I0423 12:39:45.757637    21 net.cpp:129] Top shape: 64 64 16 16 (1048576)
[2018-04-23 20:40:17]  I0423 12:39:45.757664    21 net.cpp:137] Memory required for data: 418382592
[2018-04-23 20:40:17]  I0423 12:39:45.757709    21 layer_factory.hpp:77] Creating layer Eltwise5
[2018-04-23 20:40:17]  I0423 12:39:45.757771    21 net.cpp:84] Creating Layer Eltwise5
[2018-04-23 20:40:17]  I0423 12:39:45.757807    21 net.cpp:406] Eltwise5 <- Eltwise4_ReLU9_0_split_1
[2018-04-23 20:40:17]  I0423 12:39:45.757858    21 net.cpp:406] Eltwise5 <- Convolution12
[2018-04-23 20:40:17]  I0423 12:39:45.757905    21 net.cpp:380] Eltwise5 -> Eltwise5
[2018-04-23 20:40:17]  I0423 12:39:45.757987    21 net.cpp:122] Setting up Eltwise5
[2018-04-23 20:40:17]  I0423 12:39:45.758038    21 net.cpp:129] Top shape: 64 64 16 16 (1048576)
[2018-04-23 20:40:17]  I0423 12:39:45.758065    21 net.cpp:137] Memory required for data: 422576896
[2018-04-23 20:40:17]  I0423 12:39:45.758100    21 layer_factory.hpp:77] Creating layer ReLU11
[2018-04-23 20:40:17]  I0423 12:39:45.758147    21 net.cpp:84] Creating Layer ReLU11
[2018-04-23 20:40:17]  I0423 12:39:45.758177    21 net.cpp:406] ReLU11 <- Eltwise5
[2018-04-23 20:40:17]  I0423 12:39:45.758210    21 net.cpp:367] ReLU11 -> Eltwise5 (in-place)
[2018-04-23 20:40:17]  I0423 12:39:45.758623    21 net.cpp:122] Setting up ReLU11
[2018-04-23 20:40:17]  I0423 12:39:45.758682    21 net.cpp:129] Top shape: 64 64 16 16 (1048576)
[2018-04-23 20:40:17]  I0423 12:39:45.758709    21 net.cpp:137] Memory required for data: 426771200
[2018-04-23 20:40:17]  I0423 12:39:45.758734    21 layer_factory.hpp:77] Creating layer Eltwise5_ReLU11_0_split
[2018-04-23 20:40:17]  I0423 12:39:45.758805    21 net.cpp:84] Creating Layer Eltwise5_ReLU11_0_split
[2018-04-23 20:40:17]  I0423 12:39:45.758849    21 net.cpp:406] Eltwise5_ReLU11_0_split <- Eltwise5
[2018-04-23 20:40:17]  I0423 12:39:45.758898    21 net.cpp:380] Eltwise5_ReLU11_0_split -> Eltwise5_ReLU11_0_split_0
[2018-04-23 20:40:17]  I0423 12:39:45.758940    21 net.cpp:380] Eltwise5_ReLU11_0_split -> Eltwise5_ReLU11_0_split_1
[2018-04-23 20:40:17]  I0423 12:39:45.759161    21 net.cpp:122] Setting up Eltwise5_ReLU11_0_split
[2018-04-23 20:40:17]  I0423 12:39:45.759217    21 net.cpp:129] Top shape: 64 64 16 16 (1048576)
[2018-04-23 20:40:17]  I0423 12:39:45.759258    21 net.cpp:129] Top shape: 64 64 16 16 (1048576)
[2018-04-23 20:40:18]  I0423 12:39:45.759290    21 net.cpp:137] Memory required for data: 435159808
[2018-04-23 20:40:18]  I0423 12:39:45.759327    21 layer_factory.hpp:77] Creating layer Convolution13
[2018-04-23 20:40:18]  I0423 12:39:45.759469    21 net.cpp:84] Creating Layer Convolution13
[2018-04-23 20:40:18]  I0423 12:39:45.759526    21 net.cpp:406] Convolution13 <- Eltwise5_ReLU11_0_split_0
[2018-04-23 20:40:18]  I0423 12:39:45.759563    21 net.cpp:380] Convolution13 -> Convolution13
[2018-04-23 20:40:18]  I0423 12:39:45.761548    21 net.cpp:122] Setting up Convolution13
[2018-04-23 20:40:18]  I0423 12:39:45.761617    21 net.cpp:129] Top shape: 64 64 16 16 (1048576)
[2018-04-23 20:40:18]  I0423 12:39:45.761656    21 net.cpp:137] Memory required for data: 439354112
[2018-04-23 20:40:18]  I0423 12:39:45.761718    21 layer_factory.hpp:77] Creating layer BatchNorm13
[2018-04-23 20:40:18]  I0423 12:39:45.761778    21 net.cpp:84] Creating Layer BatchNorm13
[2018-04-23 20:40:18]  I0423 12:39:45.761824    21 net.cpp:406] BatchNorm13 <- Convolution13
[2018-04-23 20:40:18]  I0423 12:39:45.761884    21 net.cpp:367] BatchNorm13 -> Convolution13 (in-place)
[2018-04-23 20:40:18]  I0423 12:39:45.762245    21 net.cpp:122] Setting up BatchNorm13
[2018-04-23 20:40:18]  I0423 12:39:45.762300    21 net.cpp:129] Top shape: 64 64 16 16 (1048576)
[2018-04-23 20:40:18]  I0423 12:39:45.762338    21 net.cpp:137] Memory required for data: 443548416
[2018-04-23 20:40:18]  I0423 12:39:45.762385    21 layer_factory.hpp:77] Creating layer Scale13
[2018-04-23 20:40:18]  I0423 12:39:45.762425    21 net.cpp:84] Creating Layer Scale13
[2018-04-23 20:40:18]  I0423 12:39:45.762460    21 net.cpp:406] Scale13 <- Convolution13
[2018-04-23 20:40:18]  I0423 12:39:45.762504    21 net.cpp:367] Scale13 -> Convolution13 (in-place)
[2018-04-23 20:40:18]  I0423 12:39:45.762636    21 layer_factory.hpp:77] Creating layer Scale13
[2018-04-23 20:40:18]  I0423 12:39:45.762898    21 net.cpp:122] Setting up Scale13
[2018-04-23 20:40:18]  I0423 12:39:45.762951    21 net.cpp:129] Top shape: 64 64 16 16 (1048576)
[2018-04-23 20:40:18]  I0423 12:39:45.762979    21 net.cpp:137] Memory required for data: 447742720
[2018-04-23 20:40:18]  I0423 12:39:45.763018    21 layer_factory.hpp:77] Creating layer ReLU12
[2018-04-23 20:40:18]  I0423 12:39:45.763057    21 net.cpp:84] Creating Layer ReLU12
[2018-04-23 20:40:18]  I0423 12:39:45.763084    21 net.cpp:406] ReLU12 <- Convolution13
[2018-04-23 20:40:18]  I0423 12:39:45.763134    21 net.cpp:367] ReLU12 -> Convolution13 (in-place)
[2018-04-23 20:40:18]  I0423 12:39:45.763545    21 net.cpp:122] Setting up ReLU12
[2018-04-23 20:40:18]  I0423 12:39:45.763603    21 net.cpp:129] Top shape: 64 64 16 16 (1048576)
[2018-04-23 20:40:18]  I0423 12:39:45.763631    21 net.cpp:137] Memory required for data: 451937024
[2018-04-23 20:40:18]  I0423 12:39:45.763656    21 layer_factory.hpp:77] Creating layer Convolution14
[2018-04-23 20:40:18]  I0423 12:39:45.763761    21 net.cpp:84] Creating Layer Convolution14
[2018-04-23 20:40:18]  I0423 12:39:45.763800    21 net.cpp:406] Convolution14 <- Convolution13
[2018-04-23 20:40:18]  I0423 12:39:45.763844    21 net.cpp:380] Convolution14 -> Convolution14
[2018-04-23 20:40:18]  I0423 12:39:45.766001    21 net.cpp:122] Setting up Convolution14
[2018-04-23 20:40:18]  I0423 12:39:45.766070    21 net.cpp:129] Top shape: 64 64 16 16 (1048576)
[2018-04-23 20:40:18]  I0423 12:39:45.766100    21 net.cpp:137] Memory required for data: 456131328
[2018-04-23 20:40:18]  I0423 12:39:45.766146    21 layer_factory.hpp:77] Creating layer BatchNorm14
[2018-04-23 20:40:18]  I0423 12:39:45.766216    21 net.cpp:84] Creating Layer BatchNorm14
[2018-04-23 20:40:18]  I0423 12:39:45.766247    21 net.cpp:406] BatchNorm14 <- Convolution14
[2018-04-23 20:40:18]  I0423 12:39:45.766297    21 net.cpp:367] BatchNorm14 -> Convolution14 (in-place)
[2018-04-23 20:40:18]  I0423 12:39:45.766690    21 net.cpp:122] Setting up BatchNorm14
[2018-04-23 20:40:18]  I0423 12:39:45.766744    21 net.cpp:129] Top shape: 64 64 16 16 (1048576)
[2018-04-23 20:40:18]  I0423 12:39:45.766772    21 net.cpp:137] Memory required for data: 460325632
[2018-04-23 20:40:18]  I0423 12:39:45.766814    21 layer_factory.hpp:77] Creating layer Scale14
[2018-04-23 20:40:18]  I0423 12:39:45.766854    21 net.cpp:84] Creating Layer Scale14
[2018-04-23 20:40:18]  I0423 12:39:45.766883    21 net.cpp:406] Scale14 <- Convolution14
[2018-04-23 20:40:18]  I0423 12:39:45.766933    21 net.cpp:367] Scale14 -> Convolution14 (in-place)
[2018-04-23 20:40:18]  I0423 12:39:45.767051    21 layer_factory.hpp:77] Creating layer Scale14
[2018-04-23 20:40:18]  I0423 12:39:45.767326    21 net.cpp:122] Setting up Scale14
[2018-04-23 20:40:18]  I0423 12:39:45.767380    21 net.cpp:129] Top shape: 64 64 16 16 (1048576)
[2018-04-23 20:40:18]  I0423 12:39:45.767407    21 net.cpp:137] Memory required for data: 464519936
[2018-04-23 20:40:18]  I0423 12:39:45.767446    21 layer_factory.hpp:77] Creating layer Eltwise6
[2018-04-23 20:40:18]  I0423 12:39:45.767487    21 net.cpp:84] Creating Layer Eltwise6
[2018-04-23 20:40:18]  I0423 12:39:45.767527    21 net.cpp:406] Eltwise6 <- Eltwise5_ReLU11_0_split_1
[2018-04-23 20:40:18]  I0423 12:39:45.767556    21 net.cpp:406] Eltwise6 <- Convolution14
[2018-04-23 20:40:18]  I0423 12:39:45.767613    21 net.cpp:380] Eltwise6 -> Eltwise6
[2018-04-23 20:40:18]  I0423 12:39:45.767711    21 net.cpp:122] Setting up Eltwise6
[2018-04-23 20:40:18]  I0423 12:39:45.767771    21 net.cpp:129] Top shape: 64 64 16 16 (1048576)
[2018-04-23 20:40:18]  I0423 12:39:45.767802    21 net.cpp:137] Memory required for data: 468714240
[2018-04-23 20:40:18]  I0423 12:39:45.767843    21 layer_factory.hpp:77] Creating layer ReLU13
[2018-04-23 20:40:18]  I0423 12:39:45.767881    21 net.cpp:84] Creating Layer ReLU13
[2018-04-23 20:40:18]  I0423 12:39:45.767915    21 net.cpp:406] ReLU13 <- Eltwise6
[2018-04-23 20:40:18]  I0423 12:39:45.767963    21 net.cpp:367] ReLU13 -> Eltwise6 (in-place)
[2018-04-23 20:40:18]  I0423 12:39:45.768551    21 net.cpp:122] Setting up ReLU13
[2018-04-23 20:40:18]  I0423 12:39:45.768616    21 net.cpp:129] Top shape: 64 64 16 16 (1048576)
[2018-04-23 20:40:18]  I0423 12:39:45.768646    21 net.cpp:137] Memory required for data: 472908544
[2018-04-23 20:40:18]  I0423 12:39:45.768682    21 layer_factory.hpp:77] Creating layer Eltwise6_ReLU13_0_split
[2018-04-23 20:40:18]  I0423 12:39:45.768739    21 net.cpp:84] Creating Layer Eltwise6_ReLU13_0_split
[2018-04-23 20:40:18]  I0423 12:39:45.768798    21 net.cpp:406] Eltwise6_ReLU13_0_split <- Eltwise6
[2018-04-23 20:40:18]  I0423 12:39:45.768837    21 net.cpp:380] Eltwise6_ReLU13_0_split -> Eltwise6_ReLU13_0_split_0
[2018-04-23 20:40:18]  I0423 12:39:45.768882    21 net.cpp:380] Eltwise6_ReLU13_0_split -> Eltwise6_ReLU13_0_split_1
[2018-04-23 20:40:18]  I0423 12:39:45.769026    21 net.cpp:122] Setting up Eltwise6_ReLU13_0_split
[2018-04-23 20:40:18]  I0423 12:39:45.769078    21 net.cpp:129] Top shape: 64 64 16 16 (1048576)
[2018-04-23 20:40:18]  I0423 12:39:45.769107    21 net.cpp:129] Top shape: 64 64 16 16 (1048576)
[2018-04-23 20:40:18]  I0423 12:39:45.769132    21 net.cpp:137] Memory required for data: 481297152
[2018-04-23 20:40:18]  I0423 12:39:45.769165    21 layer_factory.hpp:77] Creating layer Convolution15
[2018-04-23 20:40:18]  I0423 12:39:45.769219    21 net.cpp:84] Creating Layer Convolution15
[2018-04-23 20:40:19]  I0423 12:39:45.769258    21 net.cpp:406] Convolution15 <- Eltwise6_ReLU13_0_split_0
[2018-04-23 20:40:19]  I0423 12:39:45.769304    21 net.cpp:380] Convolution15 -> Convolution15
[2018-04-23 20:40:19]  I0423 12:39:45.771296    21 net.cpp:122] Setting up Convolution15
[2018-04-23 20:40:19]  I0423 12:39:45.771364    21 net.cpp:129] Top shape: 64 128 8 8 (524288)
[2018-04-23 20:40:19]  I0423 12:39:45.771395    21 net.cpp:137] Memory required for data: 483394304
[2018-04-23 20:40:19]  I0423 12:39:45.771425    21 layer_factory.hpp:77] Creating layer BatchNorm15
[2018-04-23 20:40:19]  I0423 12:39:45.771476    21 net.cpp:84] Creating Layer BatchNorm15
[2018-04-23 20:40:19]  I0423 12:39:45.771543    21 net.cpp:406] BatchNorm15 <- Convolution15
[2018-04-23 20:40:19]  I0423 12:39:45.771587    21 net.cpp:367] BatchNorm15 -> Convolution15 (in-place)
[2018-04-23 20:40:19]  I0423 12:39:45.771977    21 net.cpp:122] Setting up BatchNorm15
[2018-04-23 20:40:19]  I0423 12:39:45.772035    21 net.cpp:129] Top shape: 64 128 8 8 (524288)
[2018-04-23 20:40:19]  I0423 12:39:45.772063    21 net.cpp:137] Memory required for data: 485491456
[2018-04-23 20:40:19]  I0423 12:39:45.772105    21 layer_factory.hpp:77] Creating layer Scale15
[2018-04-23 20:40:19]  I0423 12:39:45.772179    21 net.cpp:84] Creating Layer Scale15
[2018-04-23 20:40:19]  I0423 12:39:45.772217    21 net.cpp:406] Scale15 <- Convolution15
[2018-04-23 20:40:19]  I0423 12:39:45.772259    21 net.cpp:367] Scale15 -> Convolution15 (in-place)
[2018-04-23 20:40:19]  I0423 12:39:45.772392    21 layer_factory.hpp:77] Creating layer Scale15
[2018-04-23 20:40:19]  I0423 12:39:45.772688    21 net.cpp:122] Setting up Scale15
[2018-04-23 20:40:19]  I0423 12:39:45.772740    21 net.cpp:129] Top shape: 64 128 8 8 (524288)
[2018-04-23 20:40:19]  I0423 12:39:45.772768    21 net.cpp:137] Memory required for data: 487588608
[2018-04-23 20:40:19]  I0423 12:39:45.772816    21 layer_factory.hpp:77] Creating layer Convolution16
[2018-04-23 20:40:19]  I0423 12:39:45.772891    21 net.cpp:84] Creating Layer Convolution16
[2018-04-23 20:40:19]  I0423 12:39:45.772925    21 net.cpp:406] Convolution16 <- Eltwise6_ReLU13_0_split_1
[2018-04-23 20:40:19]  I0423 12:39:45.772964    21 net.cpp:380] Convolution16 -> Convolution16
[2018-04-23 20:40:19]  I0423 12:39:45.778918    21 net.cpp:122] Setting up Convolution16
[2018-04-23 20:40:19]  I0423 12:39:45.778995    21 net.cpp:129] Top shape: 64 128 8 8 (524288)
[2018-04-23 20:40:19]  I0423 12:39:45.779027    21 net.cpp:137] Memory required for data: 489685760
[2018-04-23 20:40:19]  I0423 12:39:45.779075    21 layer_factory.hpp:77] Creating layer BatchNorm16
[2018-04-23 20:40:19]  I0423 12:39:45.779122    21 net.cpp:84] Creating Layer BatchNorm16
[2018-04-23 20:40:19]  I0423 12:39:45.779181    21 net.cpp:406] BatchNorm16 <- Convolution16
[2018-04-23 20:40:19]  I0423 12:39:45.779239    21 net.cpp:367] BatchNorm16 -> Convolution16 (in-place)
[2018-04-23 20:40:19]  I0423 12:39:45.779623    21 net.cpp:122] Setting up BatchNorm16
[2018-04-23 20:40:19]  I0423 12:39:45.779675    21 net.cpp:129] Top shape: 64 128 8 8 (524288)
[2018-04-23 20:40:19]  I0423 12:39:45.779702    21 net.cpp:137] Memory required for data: 491782912
[2018-04-23 20:40:19]  I0423 12:39:45.779744    21 layer_factory.hpp:77] Creating layer Scale16
[2018-04-23 20:40:19]  I0423 12:39:45.779790    21 net.cpp:84] Creating Layer Scale16
[2018-04-23 20:40:19]  I0423 12:39:45.779827    21 net.cpp:406] Scale16 <- Convolution16
[2018-04-23 20:40:19]  I0423 12:39:45.779878    21 net.cpp:367] Scale16 -> Convolution16 (in-place)
[2018-04-23 20:40:19]  I0423 12:39:45.780001    21 layer_factory.hpp:77] Creating layer Scale16
[2018-04-23 20:40:19]  I0423 12:39:45.780269    21 net.cpp:122] Setting up Scale16
[2018-04-23 20:40:19]  I0423 12:39:45.780324    21 net.cpp:129] Top shape: 64 128 8 8 (524288)
[2018-04-23 20:40:19]  I0423 12:39:45.780352    21 net.cpp:137] Memory required for data: 493880064
[2018-04-23 20:40:19]  I0423 12:39:45.780391    21 layer_factory.hpp:77] Creating layer ReLU14
[2018-04-23 20:40:19]  I0423 12:39:45.780431    21 net.cpp:84] Creating Layer ReLU14
[2018-04-23 20:40:19]  I0423 12:39:45.780463    21 net.cpp:406] ReLU14 <- Convolution16
[2018-04-23 20:40:19]  I0423 12:39:45.780524    21 net.cpp:367] ReLU14 -> Convolution16 (in-place)
[2018-04-23 20:40:19]  I0423 12:39:45.781107    21 net.cpp:122] Setting up ReLU14
[2018-04-23 20:40:19]  I0423 12:39:45.781172    21 net.cpp:129] Top shape: 64 128 8 8 (524288)
[2018-04-23 20:40:19]  I0423 12:39:45.781203    21 net.cpp:137] Memory required for data: 495977216
[2018-04-23 20:40:19]  I0423 12:39:45.781240    21 layer_factory.hpp:77] Creating layer Convolution17
[2018-04-23 20:40:19]  I0423 12:39:45.781301    21 net.cpp:84] Creating Layer Convolution17
[2018-04-23 20:40:19]  I0423 12:39:45.781379    21 net.cpp:406] Convolution17 <- Convolution16
[2018-04-23 20:40:19]  I0423 12:39:45.781442    21 net.cpp:380] Convolution17 -> Convolution17
[2018-04-23 20:40:19]  I0423 12:39:45.784485    21 net.cpp:122] Setting up Convolution17
[2018-04-23 20:40:19]  I0423 12:39:45.784562    21 net.cpp:129] Top shape: 64 128 8 8 (524288)
[2018-04-23 20:40:19]  I0423 12:39:45.784593    21 net.cpp:137] Memory required for data: 498074368
[2018-04-23 20:40:19]  I0423 12:39:45.784644    21 layer_factory.hpp:77] Creating layer BatchNorm17
[2018-04-23 20:40:19]  I0423 12:39:45.784723    21 net.cpp:84] Creating Layer BatchNorm17
[2018-04-23 20:40:19]  I0423 12:39:45.784760    21 net.cpp:406] BatchNorm17 <- Convolution17
[2018-04-23 20:40:19]  I0423 12:39:45.784801    21 net.cpp:367] BatchNorm17 -> Convolution17 (in-place)
[2018-04-23 20:40:19]  I0423 12:39:45.785184    21 net.cpp:122] Setting up BatchNorm17
[2018-04-23 20:40:19]  I0423 12:39:45.785236    21 net.cpp:129] Top shape: 64 128 8 8 (524288)
[2018-04-23 20:40:19]  I0423 12:39:45.785264    21 net.cpp:137] Memory required for data: 500171520
[2018-04-23 20:40:19]  I0423 12:39:45.785310    21 layer_factory.hpp:77] Creating layer Scale17
[2018-04-23 20:40:19]  I0423 12:39:45.785390    21 net.cpp:84] Creating Layer Scale17
[2018-04-23 20:40:19]  I0423 12:39:45.785434    21 net.cpp:406] Scale17 <- Convolution17
[2018-04-23 20:40:19]  I0423 12:39:45.785475    21 net.cpp:367] Scale17 -> Convolution17 (in-place)
[2018-04-23 20:40:19]  I0423 12:39:45.785715    21 layer_factory.hpp:77] Creating layer Scale17
[2018-04-23 20:40:19]  I0423 12:39:45.785995    21 net.cpp:122] Setting up Scale17
[2018-04-23 20:40:19]  I0423 12:39:45.786047    21 net.cpp:129] Top shape: 64 128 8 8 (524288)
[2018-04-23 20:40:19]  I0423 12:39:45.786074    21 net.cpp:137] Memory required for data: 502268672
[2018-04-23 20:40:19]  I0423 12:39:45.786115    21 layer_factory.hpp:77] Creating layer Eltwise7
[2018-04-23 20:40:19]  I0423 12:39:45.786175    21 net.cpp:84] Creating Layer Eltwise7
[2018-04-23 20:40:19]  I0423 12:39:45.786209    21 net.cpp:406] Eltwise7 <- Convolution15
[2018-04-23 20:40:19]  I0423 12:39:45.786260    21 net.cpp:406] Eltwise7 <- Convolution17
[2018-04-23 20:40:20]  I0423 12:39:45.786298    21 net.cpp:380] Eltwise7 -> Eltwise7
[2018-04-23 20:40:20]  I0423 12:39:45.786401    21 net.cpp:122] Setting up Eltwise7
[2018-04-23 20:40:20]  I0423 12:39:45.786453    21 net.cpp:129] Top shape: 64 128 8 8 (524288)
[2018-04-23 20:40:20]  I0423 12:39:45.786478    21 net.cpp:137] Memory required for data: 504365824
[2018-04-23 20:40:20]  I0423 12:39:45.786523    21 layer_factory.hpp:77] Creating layer ReLU15
[2018-04-23 20:40:20]  I0423 12:39:45.786576    21 net.cpp:84] Creating Layer ReLU15
[2018-04-23 20:40:20]  I0423 12:39:45.786612    21 net.cpp:406] ReLU15 <- Eltwise7
[2018-04-23 20:40:20]  I0423 12:39:45.786659    21 net.cpp:367] ReLU15 -> Eltwise7 (in-place)
[2018-04-23 20:40:20]  I0423 12:39:45.787019    21 net.cpp:122] Setting up ReLU15
[2018-04-23 20:40:20]  I0423 12:39:45.787077    21 net.cpp:129] Top shape: 64 128 8 8 (524288)
[2018-04-23 20:40:20]  I0423 12:39:45.787107    21 net.cpp:137] Memory required for data: 506462976
[2018-04-23 20:40:20]  I0423 12:39:45.787137    21 layer_factory.hpp:77] Creating layer Eltwise7_ReLU15_0_split
[2018-04-23 20:40:20]  I0423 12:39:45.787179    21 net.cpp:84] Creating Layer Eltwise7_ReLU15_0_split
[2018-04-23 20:40:20]  I0423 12:39:45.787209    21 net.cpp:406] Eltwise7_ReLU15_0_split <- Eltwise7
[2018-04-23 20:40:20]  I0423 12:39:45.787271    21 net.cpp:380] Eltwise7_ReLU15_0_split -> Eltwise7_ReLU15_0_split_0
[2018-04-23 20:40:20]  I0423 12:39:45.787328    21 net.cpp:380] Eltwise7_ReLU15_0_split -> Eltwise7_ReLU15_0_split_1
[2018-04-23 20:40:20]  I0423 12:39:45.787454    21 net.cpp:122] Setting up Eltwise7_ReLU15_0_split
[2018-04-23 20:40:20]  I0423 12:39:45.787516    21 net.cpp:129] Top shape: 64 128 8 8 (524288)
[2018-04-23 20:40:20]  I0423 12:39:45.787546    21 net.cpp:129] Top shape: 64 128 8 8 (524288)
[2018-04-23 20:40:20]  I0423 12:39:45.787588    21 net.cpp:137] Memory required for data: 510657280
[2018-04-23 20:40:20]  I0423 12:39:45.787624    21 layer_factory.hpp:77] Creating layer Convolution18
[2018-04-23 20:40:20]  I0423 12:39:45.787708    21 net.cpp:84] Creating Layer Convolution18
[2018-04-23 20:40:20]  I0423 12:39:45.787758    21 net.cpp:406] Convolution18 <- Eltwise7_ReLU15_0_split_0
[2018-04-23 20:40:20]  I0423 12:39:45.787812    21 net.cpp:380] Convolution18 -> Convolution18
[2018-04-23 20:40:20]  I0423 12:39:45.790699    21 net.cpp:122] Setting up Convolution18
[2018-04-23 20:40:20]  I0423 12:39:45.790768    21 net.cpp:129] Top shape: 64 128 8 8 (524288)
[2018-04-23 20:40:20]  I0423 12:39:45.790799    21 net.cpp:137] Memory required for data: 512754432
[2018-04-23 20:40:20]  I0423 12:39:45.790848    21 layer_factory.hpp:77] Creating layer BatchNorm18
[2018-04-23 20:40:20]  I0423 12:39:45.790881    21 net.cpp:84] Creating Layer BatchNorm18
[2018-04-23 20:40:20]  I0423 12:39:45.790915    21 net.cpp:406] BatchNorm18 <- Convolution18
[2018-04-23 20:40:20]  I0423 12:39:45.790978    21 net.cpp:367] BatchNorm18 -> Convolution18 (in-place)
[2018-04-23 20:40:20]  I0423 12:39:45.791378    21 net.cpp:122] Setting up BatchNorm18
[2018-04-23 20:40:20]  I0423 12:39:45.791432    21 net.cpp:129] Top shape: 64 128 8 8 (524288)
[2018-04-23 20:40:20]  I0423 12:39:45.791460    21 net.cpp:137] Memory required for data: 514851584
[2018-04-23 20:40:20]  I0423 12:39:45.791507    21 layer_factory.hpp:77] Creating layer Scale18
[2018-04-23 20:40:20]  I0423 12:39:45.791599    21 net.cpp:84] Creating Layer Scale18
[2018-04-23 20:40:20]  I0423 12:39:45.791630    21 net.cpp:406] Scale18 <- Convolution18
[2018-04-23 20:40:20]  I0423 12:39:45.791664    21 net.cpp:367] Scale18 -> Convolution18 (in-place)
[2018-04-23 20:40:20]  I0423 12:39:45.791801    21 layer_factory.hpp:77] Creating layer Scale18
[2018-04-23 20:40:20]  I0423 12:39:45.792068    21 net.cpp:122] Setting up Scale18
[2018-04-23 20:40:20]  I0423 12:39:45.792121    21 net.cpp:129] Top shape: 64 128 8 8 (524288)
[2018-04-23 20:40:20]  I0423 12:39:45.792161    21 net.cpp:137] Memory required for data: 516948736
[2018-04-23 20:40:20]  I0423 12:39:45.792198    21 layer_factory.hpp:77] Creating layer ReLU16
[2018-04-23 20:40:20]  I0423 12:39:45.792243    21 net.cpp:84] Creating Layer ReLU16
[2018-04-23 20:40:20]  I0423 12:39:45.792285    21 net.cpp:406] ReLU16 <- Convolution18
[2018-04-23 20:40:20]  I0423 12:39:45.792328    21 net.cpp:367] ReLU16 -> Convolution18 (in-place)
[2018-04-23 20:40:20]  I0423 12:39:45.792939    21 net.cpp:122] Setting up ReLU16
[2018-04-23 20:40:20]  I0423 12:39:45.792999    21 net.cpp:129] Top shape: 64 128 8 8 (524288)
[2018-04-23 20:40:20]  I0423 12:39:45.793040    21 net.cpp:137] Memory required for data: 519045888
[2018-04-23 20:40:20]  I0423 12:39:45.793074    21 layer_factory.hpp:77] Creating layer Convolution19
[2018-04-23 20:40:20]  I0423 12:39:45.793177    21 net.cpp:84] Creating Layer Convolution19
[2018-04-23 20:40:20]  I0423 12:39:45.793215    21 net.cpp:406] Convolution19 <- Convolution18
[2018-04-23 20:40:20]  I0423 12:39:45.793306    21 net.cpp:380] Convolution19 -> Convolution19
[2018-04-23 20:40:20]  I0423 12:39:45.796352    21 net.cpp:122] Setting up Convolution19
[2018-04-23 20:40:20]  I0423 12:39:45.796423    21 net.cpp:129] Top shape: 64 128 8 8 (524288)
[2018-04-23 20:40:20]  I0423 12:39:45.796452    21 net.cpp:137] Memory required for data: 521143040
[2018-04-23 20:40:20]  I0423 12:39:45.796512    21 layer_factory.hpp:77] Creating layer BatchNorm19
[2018-04-23 20:40:20]  I0423 12:39:45.796581    21 net.cpp:84] Creating Layer BatchNorm19
[2018-04-23 20:40:20]  I0423 12:39:45.796620    21 net.cpp:406] BatchNorm19 <- Convolution19
[2018-04-23 20:40:20]  I0423 12:39:45.796655    21 net.cpp:367] BatchNorm19 -> Convolution19 (in-place)
[2018-04-23 20:40:20]  I0423 12:39:45.797062    21 net.cpp:122] Setting up BatchNorm19
[2018-04-23 20:40:20]  I0423 12:39:45.797113    21 net.cpp:129] Top shape: 64 128 8 8 (524288)
[2018-04-23 20:40:20]  I0423 12:39:45.797142    21 net.cpp:137] Memory required for data: 523240192
[2018-04-23 20:40:20]  I0423 12:39:45.797291    21 layer_factory.hpp:77] Creating layer Scale19
[2018-04-23 20:40:20]  I0423 12:39:45.797359    21 net.cpp:84] Creating Layer Scale19
[2018-04-23 20:40:20]  I0423 12:39:45.797395    21 net.cpp:406] Scale19 <- Convolution19
[2018-04-23 20:40:20]  I0423 12:39:45.797452    21 net.cpp:367] Scale19 -> Convolution19 (in-place)
[2018-04-23 20:40:20]  I0423 12:39:45.797591    21 layer_factory.hpp:77] Creating layer Scale19
[2018-04-23 20:40:20]  I0423 12:39:45.797911    21 net.cpp:122] Setting up Scale19
[2018-04-23 20:40:21]  I0423 12:39:45.797976    21 net.cpp:129] Top shape: 64 128 8 8 (524288)
[2018-04-23 20:40:21]  I0423 12:39:45.798030    21 net.cpp:137] Memory required for data: 525337344
[2018-04-23 20:40:21]  I0423 12:39:45.798070    21 layer_factory.hpp:77] Creating layer Eltwise8
[2018-04-23 20:40:21]  I0423 12:39:45.798122    21 net.cpp:84] Creating Layer Eltwise8
[2018-04-23 20:40:21]  I0423 12:39:45.798154    21 net.cpp:406] Eltwise8 <- Eltwise7_ReLU15_0_split_1
[2018-04-23 20:40:21]  I0423 12:39:45.798213    21 net.cpp:406] Eltwise8 <- Convolution19
[2018-04-23 20:40:21]  I0423 12:39:45.798246    21 net.cpp:380] Eltwise8 -> Eltwise8
[2018-04-23 20:40:21]  I0423 12:39:45.798351    21 net.cpp:122] Setting up Eltwise8
[2018-04-23 20:40:21]  I0423 12:39:45.798403    21 net.cpp:129] Top shape: 64 128 8 8 (524288)
[2018-04-23 20:40:21]  I0423 12:39:45.798439    21 net.cpp:137] Memory required for data: 527434496
[2018-04-23 20:40:21]  I0423 12:39:45.798475    21 layer_factory.hpp:77] Creating layer ReLU17
[2018-04-23 20:40:21]  I0423 12:39:45.798542    21 net.cpp:84] Creating Layer ReLU17
[2018-04-23 20:40:21]  I0423 12:39:45.798583    21 net.cpp:406] ReLU17 <- Eltwise8
[2018-04-23 20:40:21]  I0423 12:39:45.798642    21 net.cpp:367] ReLU17 -> Eltwise8 (in-place)
[2018-04-23 20:40:21]  I0423 12:39:45.799017    21 net.cpp:122] Setting up ReLU17
[2018-04-23 20:40:21]  I0423 12:39:45.799077    21 net.cpp:129] Top shape: 64 128 8 8 (524288)
[2018-04-23 20:40:21]  I0423 12:39:45.799108    21 net.cpp:137] Memory required for data: 529531648
[2018-04-23 20:40:21]  I0423 12:39:45.799135    21 layer_factory.hpp:77] Creating layer Eltwise8_ReLU17_0_split
[2018-04-23 20:40:21]  I0423 12:39:45.799178    21 net.cpp:84] Creating Layer Eltwise8_ReLU17_0_split
[2018-04-23 20:40:21]  I0423 12:39:45.799207    21 net.cpp:406] Eltwise8_ReLU17_0_split <- Eltwise8
[2018-04-23 20:40:21]  I0423 12:39:45.799266    21 net.cpp:380] Eltwise8_ReLU17_0_split -> Eltwise8_ReLU17_0_split_0
[2018-04-23 20:40:21]  I0423 12:39:45.799340    21 net.cpp:380] Eltwise8_ReLU17_0_split -> Eltwise8_ReLU17_0_split_1
[2018-04-23 20:40:21]  I0423 12:39:45.799489    21 net.cpp:122] Setting up Eltwise8_ReLU17_0_split
[2018-04-23 20:40:21]  I0423 12:39:45.799554    21 net.cpp:129] Top shape: 64 128 8 8 (524288)
[2018-04-23 20:40:21]  I0423 12:39:45.799583    21 net.cpp:129] Top shape: 64 128 8 8 (524288)
[2018-04-23 20:40:21]  I0423 12:39:45.799624    21 net.cpp:137] Memory required for data: 533725952
[2018-04-23 20:40:21]  I0423 12:39:45.799671    21 layer_factory.hpp:77] Creating layer Convolution20
[2018-04-23 20:40:21]  I0423 12:39:45.799727    21 net.cpp:84] Creating Layer Convolution20
[2018-04-23 20:40:21]  I0423 12:39:45.799765    21 net.cpp:406] Convolution20 <- Eltwise8_ReLU17_0_split_0
[2018-04-23 20:40:21]  I0423 12:39:45.799815    21 net.cpp:380] Convolution20 -> Convolution20
[2018-04-23 20:40:21]  I0423 12:39:45.805654    21 net.cpp:122] Setting up Convolution20
[2018-04-23 20:40:21]  I0423 12:39:45.805725    21 net.cpp:129] Top shape: 64 128 8 8 (524288)
[2018-04-23 20:40:21]  I0423 12:39:45.805757    21 net.cpp:137] Memory required for data: 535823104
[2018-04-23 20:40:21]  I0423 12:39:45.805788    21 layer_factory.hpp:77] Creating layer BatchNorm20
[2018-04-23 20:40:21]  I0423 12:39:45.805871    21 net.cpp:84] Creating Layer BatchNorm20
[2018-04-23 20:40:21]  I0423 12:39:45.805922    21 net.cpp:406] BatchNorm20 <- Convolution20
[2018-04-23 20:40:21]  I0423 12:39:45.805981    21 net.cpp:367] BatchNorm20 -> Convolution20 (in-place)
[2018-04-23 20:40:21]  I0423 12:39:45.806404    21 net.cpp:122] Setting up BatchNorm20
[2018-04-23 20:40:21]  I0423 12:39:45.806458    21 net.cpp:129] Top shape: 64 128 8 8 (524288)
[2018-04-23 20:40:21]  I0423 12:39:45.806510    21 net.cpp:137] Memory required for data: 537920256
[2018-04-23 20:40:21]  I0423 12:39:45.806553    21 layer_factory.hpp:77] Creating layer Scale20
[2018-04-23 20:40:21]  I0423 12:39:45.806601    21 net.cpp:84] Creating Layer Scale20
[2018-04-23 20:40:21]  I0423 12:39:45.806639    21 net.cpp:406] Scale20 <- Convolution20
[2018-04-23 20:40:21]  I0423 12:39:45.806897    21 net.cpp:367] Scale20 -> Convolution20 (in-place)
[2018-04-23 20:40:21]  I0423 12:39:45.807044    21 layer_factory.hpp:77] Creating layer Scale20
[2018-04-23 20:40:21]  I0423 12:39:45.807329    21 net.cpp:122] Setting up Scale20
[2018-04-23 20:40:21]  I0423 12:39:45.807391    21 net.cpp:129] Top shape: 64 128 8 8 (524288)
[2018-04-23 20:40:21]  I0423 12:39:45.807447    21 net.cpp:137] Memory required for data: 540017408
[2018-04-23 20:40:21]  I0423 12:39:45.807488    21 layer_factory.hpp:77] Creating layer ReLU18
[2018-04-23 20:40:21]  I0423 12:39:45.807560    21 net.cpp:84] Creating Layer ReLU18
[2018-04-23 20:40:21]  I0423 12:39:45.807607    21 net.cpp:406] ReLU18 <- Convolution20
[2018-04-23 20:40:21]  I0423 12:39:45.807644    21 net.cpp:367] ReLU18 -> Convolution20 (in-place)
[2018-04-23 20:40:21]  I0423 12:39:45.808049    21 net.cpp:122] Setting up ReLU18
[2018-04-23 20:40:21]  I0423 12:39:45.808118    21 net.cpp:129] Top shape: 64 128 8 8 (524288)
[2018-04-23 20:40:21]  I0423 12:39:45.808173    21 net.cpp:137] Memory required for data: 542114560
[2018-04-23 20:40:21]  I0423 12:39:45.808245    21 layer_factory.hpp:77] Creating layer Convolution21
[2018-04-23 20:40:21]  I0423 12:39:45.808324    21 net.cpp:84] Creating Layer Convolution21
[2018-04-23 20:40:21]  I0423 12:39:45.808369    21 net.cpp:406] Convolution21 <- Convolution20
[2018-04-23 20:40:21]  I0423 12:39:45.808413    21 net.cpp:380] Convolution21 -> Convolution21
[2018-04-23 20:40:21]  I0423 12:39:45.811280    21 net.cpp:122] Setting up Convolution21
[2018-04-23 20:40:21]  I0423 12:39:45.811352    21 net.cpp:129] Top shape: 64 128 8 8 (524288)
[2018-04-23 20:40:21]  I0423 12:39:45.811383    21 net.cpp:137] Memory required for data: 544211712
[2018-04-23 20:40:21]  I0423 12:39:45.811424    21 layer_factory.hpp:77] Creating layer BatchNorm21
[2018-04-23 20:40:21]  I0423 12:39:45.811483    21 net.cpp:84] Creating Layer BatchNorm21
[2018-04-23 20:40:21]  I0423 12:39:45.811549    21 net.cpp:406] BatchNorm21 <- Convolution21
[2018-04-23 20:40:21]  I0423 12:39:45.811607    21 net.cpp:367] BatchNorm21 -> Convolution21 (in-place)
[2018-04-23 20:40:21]  I0423 12:39:45.812007    21 net.cpp:122] Setting up BatchNorm21
[2018-04-23 20:40:21]  I0423 12:39:45.812062    21 net.cpp:129] Top shape: 64 128 8 8 (524288)
[2018-04-23 20:40:21]  I0423 12:39:45.812099    21 net.cpp:137] Memory required for data: 546308864
[2018-04-23 20:40:21]  I0423 12:39:45.812150    21 layer_factory.hpp:77] Creating layer Scale21
[2018-04-23 20:40:21]  I0423 12:39:45.812207    21 net.cpp:84] Creating Layer Scale21
[2018-04-23 20:40:21]  I0423 12:39:45.812242    21 net.cpp:406] Scale21 <- Convolution21
[2018-04-23 20:40:21]  I0423 12:39:45.812320    21 net.cpp:367] Scale21 -> Convolution21 (in-place)
[2018-04-23 20:40:21]  I0423 12:39:45.812441    21 layer_factory.hpp:77] Creating layer Scale21
[2018-04-23 20:40:22]  I0423 12:39:45.812731    21 net.cpp:122] Setting up Scale21
[2018-04-23 20:40:22]  I0423 12:39:45.812786    21 net.cpp:129] Top shape: 64 128 8 8 (524288)
[2018-04-23 20:40:22]  I0423 12:39:45.812824    21 net.cpp:137] Memory required for data: 548406016
[2018-04-23 20:40:22]  I0423 12:39:45.812880    21 layer_factory.hpp:77] Creating layer Eltwise9
[2018-04-23 20:40:22]  I0423 12:39:45.812922    21 net.cpp:84] Creating Layer Eltwise9
[2018-04-23 20:40:22]  I0423 12:39:45.812978    21 net.cpp:406] Eltwise9 <- Eltwise8_ReLU17_0_split_1
[2018-04-23 20:40:22]  I0423 12:39:45.813045    21 net.cpp:406] Eltwise9 <- Convolution21
[2018-04-23 20:40:22]  I0423 12:39:45.813132    21 net.cpp:380] Eltwise9 -> Eltwise9
[2018-04-23 20:40:22]  I0423 12:39:45.813253    21 net.cpp:122] Setting up Eltwise9
[2018-04-23 20:40:22]  I0423 12:39:45.813316    21 net.cpp:129] Top shape: 64 128 8 8 (524288)
[2018-04-23 20:40:22]  I0423 12:39:45.813396    21 net.cpp:137] Memory required for data: 550503168
[2018-04-23 20:40:22]  I0423 12:39:45.813443    21 layer_factory.hpp:77] Creating layer ReLU19
[2018-04-23 20:40:22]  I0423 12:39:45.813508    21 net.cpp:84] Creating Layer ReLU19
[2018-04-23 20:40:22]  I0423 12:39:45.813547    21 net.cpp:406] ReLU19 <- Eltwise9
[2018-04-23 20:40:22]  I0423 12:39:45.813616    21 net.cpp:367] ReLU19 -> Eltwise9 (in-place)
[2018-04-23 20:40:22]  I0423 12:39:45.814013    21 net.cpp:122] Setting up ReLU19
[2018-04-23 20:40:22]  I0423 12:39:45.814070    21 net.cpp:129] Top shape: 64 128 8 8 (524288)
[2018-04-23 20:40:22]  I0423 12:39:45.814100    21 net.cpp:137] Memory required for data: 552600320
[2018-04-23 20:40:22]  I0423 12:39:45.814126    21 layer_factory.hpp:77] Creating layer Eltwise9_ReLU19_0_split
[2018-04-23 20:40:22]  I0423 12:39:45.814177    21 net.cpp:84] Creating Layer Eltwise9_ReLU19_0_split
[2018-04-23 20:40:22]  I0423 12:39:45.814211    21 net.cpp:406] Eltwise9_ReLU19_0_split <- Eltwise9
[2018-04-23 20:40:22]  I0423 12:39:45.814268    21 net.cpp:380] Eltwise9_ReLU19_0_split -> Eltwise9_ReLU19_0_split_0
[2018-04-23 20:40:22]  I0423 12:39:45.814303    21 net.cpp:380] Eltwise9_ReLU19_0_split -> Eltwise9_ReLU19_0_split_1
[2018-04-23 20:40:22]  I0423 12:39:45.814451    21 net.cpp:122] Setting up Eltwise9_ReLU19_0_split
[2018-04-23 20:40:22]  I0423 12:39:45.814514    21 net.cpp:129] Top shape: 64 128 8 8 (524288)
[2018-04-23 20:40:22]  I0423 12:39:45.814546    21 net.cpp:129] Top shape: 64 128 8 8 (524288)
[2018-04-23 20:40:22]  I0423 12:39:45.814571    21 net.cpp:137] Memory required for data: 556794624
[2018-04-23 20:40:22]  I0423 12:39:45.814632    21 layer_factory.hpp:77] Creating layer Convolution22
[2018-04-23 20:40:22]  I0423 12:39:45.814689    21 net.cpp:84] Creating Layer Convolution22
[2018-04-23 20:40:22]  I0423 12:39:45.814745    21 net.cpp:406] Convolution22 <- Eltwise9_ReLU19_0_split_0
[2018-04-23 20:40:22]  I0423 12:39:45.814792    21 net.cpp:380] Convolution22 -> Convolution22
[2018-04-23 20:40:22]  I0423 12:39:45.816738    21 net.cpp:122] Setting up Convolution22
[2018-04-23 20:40:22]  I0423 12:39:45.816807    21 net.cpp:129] Top shape: 64 256 4 4 (262144)
[2018-04-23 20:40:22]  I0423 12:39:45.816835    21 net.cpp:137] Memory required for data: 557843200
[2018-04-23 20:40:22]  I0423 12:39:45.816879    21 layer_factory.hpp:77] Creating layer BatchNorm22
[2018-04-23 20:40:22]  I0423 12:39:45.816948    21 net.cpp:84] Creating Layer BatchNorm22
[2018-04-23 20:40:22]  I0423 12:39:45.816983    21 net.cpp:406] BatchNorm22 <- Convolution22
[2018-04-23 20:40:22]  I0423 12:39:45.817023    21 net.cpp:367] BatchNorm22 -> Convolution22 (in-place)
[2018-04-23 20:40:22]  I0423 12:39:45.817438    21 net.cpp:122] Setting up BatchNorm22
[2018-04-23 20:40:22]  I0423 12:39:45.817504    21 net.cpp:129] Top shape: 64 256 4 4 (262144)
[2018-04-23 20:40:22]  I0423 12:39:45.817535    21 net.cpp:137] Memory required for data: 558891776
[2018-04-23 20:40:22]  I0423 12:39:45.817580    21 layer_factory.hpp:77] Creating layer Scale22
[2018-04-23 20:40:22]  I0423 12:39:45.817641    21 net.cpp:84] Creating Layer Scale22
[2018-04-23 20:40:22]  I0423 12:39:45.817685    21 net.cpp:406] Scale22 <- Convolution22
[2018-04-23 20:40:22]  I0423 12:39:45.817749    21 net.cpp:367] Scale22 -> Convolution22 (in-place)
[2018-04-23 20:40:22]  I0423 12:39:45.817895    21 layer_factory.hpp:77] Creating layer Scale22
[2018-04-23 20:40:22]  I0423 12:39:45.818193    21 net.cpp:122] Setting up Scale22
[2018-04-23 20:40:22]  I0423 12:39:45.818259    21 net.cpp:129] Top shape: 64 256 4 4 (262144)
[2018-04-23 20:40:22]  I0423 12:39:45.818300    21 net.cpp:137] Memory required for data: 559940352
[2018-04-23 20:40:22]  I0423 12:39:45.818339    21 layer_factory.hpp:77] Creating layer Convolution23
[2018-04-23 20:40:22]  I0423 12:39:45.818394    21 net.cpp:84] Creating Layer Convolution23
[2018-04-23 20:40:22]  I0423 12:39:45.818442    21 net.cpp:406] Convolution23 <- Eltwise9_ReLU19_0_split_1
[2018-04-23 20:40:22]  I0423 12:39:45.818485    21 net.cpp:380] Convolution23 -> Convolution23
[2018-04-23 20:40:22]  I0423 12:39:45.825826    21 net.cpp:122] Setting up Convolution23
[2018-04-23 20:40:22]  I0423 12:39:45.825907    21 net.cpp:129] Top shape: 64 256 4 4 (262144)
[2018-04-23 20:40:22]  I0423 12:39:45.825942    21 net.cpp:137] Memory required for data: 560988928
[2018-04-23 20:40:22]  I0423 12:39:45.825973    21 layer_factory.hpp:77] Creating layer BatchNorm23
[2018-04-23 20:40:22]  I0423 12:39:45.826004    21 net.cpp:84] Creating Layer BatchNorm23
[2018-04-23 20:40:22]  I0423 12:39:45.826030    21 net.cpp:406] BatchNorm23 <- Convolution23
[2018-04-23 20:40:22]  I0423 12:39:45.826081    21 net.cpp:367] BatchNorm23 -> Convolution23 (in-place)
[2018-04-23 20:40:22]  I0423 12:39:45.826470    21 net.cpp:122] Setting up BatchNorm23
[2018-04-23 20:40:22]  I0423 12:39:45.826537    21 net.cpp:129] Top shape: 64 256 4 4 (262144)
[2018-04-23 20:40:22]  I0423 12:39:45.826565    21 net.cpp:137] Memory required for data: 562037504
[2018-04-23 20:40:22]  I0423 12:39:45.826596    21 layer_factory.hpp:77] Creating layer Scale23
[2018-04-23 20:40:22]  I0423 12:39:45.826653    21 net.cpp:84] Creating Layer Scale23
[2018-04-23 20:40:22]  I0423 12:39:45.826696    21 net.cpp:406] Scale23 <- Convolution23
[2018-04-23 20:40:22]  I0423 12:39:45.826731    21 net.cpp:367] Scale23 -> Convolution23 (in-place)
[2018-04-23 20:40:22]  I0423 12:39:45.826871    21 layer_factory.hpp:77] Creating layer Scale23
[2018-04-23 20:40:22]  I0423 12:39:45.827157    21 net.cpp:122] Setting up Scale23
[2018-04-23 20:40:22]  I0423 12:39:45.827211    21 net.cpp:129] Top shape: 64 256 4 4 (262144)
[2018-04-23 20:40:22]  I0423 12:39:45.827239    21 net.cpp:137] Memory required for data: 563086080
[2018-04-23 20:40:22]  I0423 12:39:45.827267    21 layer_factory.hpp:77] Creating layer ReLU20
[2018-04-23 20:40:23]  I0423 12:39:45.827318    21 net.cpp:84] Creating Layer ReLU20
[2018-04-23 20:40:23]  I0423 12:39:45.827349    21 net.cpp:406] ReLU20 <- Convolution23
[2018-04-23 20:40:23]  I0423 12:39:45.827410    21 net.cpp:367] ReLU20 -> Convolution23 (in-place)
[2018-04-23 20:40:23]  I0423 12:39:45.827993    21 net.cpp:122] Setting up ReLU20
[2018-04-23 20:40:23]  I0423 12:39:45.828058    21 net.cpp:129] Top shape: 64 256 4 4 (262144)
[2018-04-23 20:40:23]  I0423 12:39:45.828088    21 net.cpp:137] Memory required for data: 564134656
[2018-04-23 20:40:23]  I0423 12:39:45.828114    21 layer_factory.hpp:77] Creating layer Convolution24
[2018-04-23 20:40:23]  I0423 12:39:45.828197    21 net.cpp:84] Creating Layer Convolution24
[2018-04-23 20:40:23]  I0423 12:39:45.828233    21 net.cpp:406] Convolution24 <- Convolution23
[2018-04-23 20:40:23]  I0423 12:39:45.828281    21 net.cpp:380] Convolution24 -> Convolution24
[2018-04-23 20:40:23]  I0423 12:39:45.836866    21 net.cpp:122] Setting up Convolution24
[2018-04-23 20:40:23]  I0423 12:39:45.836937    21 net.cpp:129] Top shape: 64 256 4 4 (262144)
[2018-04-23 20:40:23]  I0423 12:39:45.836968    21 net.cpp:137] Memory required for data: 565183232
[2018-04-23 20:40:23]  I0423 12:39:45.837011    21 layer_factory.hpp:77] Creating layer BatchNorm24
[2018-04-23 20:40:23]  I0423 12:39:45.837069    21 net.cpp:84] Creating Layer BatchNorm24
[2018-04-23 20:40:23]  I0423 12:39:45.837126    21 net.cpp:406] BatchNorm24 <- Convolution24
[2018-04-23 20:40:23]  I0423 12:39:45.837157    21 net.cpp:367] BatchNorm24 -> Convolution24 (in-place)
[2018-04-23 20:40:23]  I0423 12:39:45.837647    21 net.cpp:122] Setting up BatchNorm24
[2018-04-23 20:40:23]  I0423 12:39:45.837704    21 net.cpp:129] Top shape: 64 256 4 4 (262144)
[2018-04-23 20:40:23]  I0423 12:39:45.837743    21 net.cpp:137] Memory required for data: 566231808
[2018-04-23 20:40:23]  I0423 12:39:45.837797    21 layer_factory.hpp:77] Creating layer Scale24
[2018-04-23 20:40:23]  I0423 12:39:45.837852    21 net.cpp:84] Creating Layer Scale24
[2018-04-23 20:40:23]  I0423 12:39:45.837906    21 net.cpp:406] Scale24 <- Convolution24
[2018-04-23 20:40:23]  I0423 12:39:45.837965    21 net.cpp:367] Scale24 -> Convolution24 (in-place)
[2018-04-23 20:40:23]  I0423 12:39:45.838124    21 layer_factory.hpp:77] Creating layer Scale24
[2018-04-23 20:40:23]  I0423 12:39:45.838407    21 net.cpp:122] Setting up Scale24
[2018-04-23 20:40:23]  I0423 12:39:45.838467    21 net.cpp:129] Top shape: 64 256 4 4 (262144)
[2018-04-23 20:40:23]  I0423 12:39:45.838526    21 net.cpp:137] Memory required for data: 567280384
[2018-04-23 20:40:23]  I0423 12:39:45.838591    21 layer_factory.hpp:77] Creating layer Eltwise10
[2018-04-23 20:40:23]  I0423 12:39:45.838629    21 net.cpp:84] Creating Layer Eltwise10
[2018-04-23 20:40:23]  I0423 12:39:45.838667    21 net.cpp:406] Eltwise10 <- Convolution22
[2018-04-23 20:40:23]  I0423 12:39:45.838703    21 net.cpp:406] Eltwise10 <- Convolution24
[2018-04-23 20:40:23]  I0423 12:39:45.838762    21 net.cpp:380] Eltwise10 -> Eltwise10
[2018-04-23 20:40:23]  I0423 12:39:45.838855    21 net.cpp:122] Setting up Eltwise10
[2018-04-23 20:40:23]  I0423 12:39:45.838903    21 net.cpp:129] Top shape: 64 256 4 4 (262144)
[2018-04-23 20:40:23]  I0423 12:39:45.838932    21 net.cpp:137] Memory required for data: 568328960
[2018-04-23 20:40:23]  I0423 12:39:45.838984    21 layer_factory.hpp:77] Creating layer ReLU21
[2018-04-23 20:40:23]  I0423 12:39:45.839033    21 net.cpp:84] Creating Layer ReLU21
[2018-04-23 20:40:23]  I0423 12:39:45.839085    21 net.cpp:406] ReLU21 <- Eltwise10
[2018-04-23 20:40:23]  I0423 12:39:45.839128    21 net.cpp:367] ReLU21 -> Eltwise10 (in-place)
[2018-04-23 20:40:23]  I0423 12:39:45.839532    21 net.cpp:122] Setting up ReLU21
[2018-04-23 20:40:23]  I0423 12:39:45.839591    21 net.cpp:129] Top shape: 64 256 4 4 (262144)
[2018-04-23 20:40:23]  I0423 12:39:45.839620    21 net.cpp:137] Memory required for data: 569377536
[2018-04-23 20:40:23]  I0423 12:39:45.839645    21 layer_factory.hpp:77] Creating layer Eltwise10_ReLU21_0_split
[2018-04-23 20:40:23]  I0423 12:39:45.839694    21 net.cpp:84] Creating Layer Eltwise10_ReLU21_0_split
[2018-04-23 20:40:23]  I0423 12:39:45.839743    21 net.cpp:406] Eltwise10_ReLU21_0_split <- Eltwise10
[2018-04-23 20:40:23]  I0423 12:39:45.839805    21 net.cpp:380] Eltwise10_ReLU21_0_split -> Eltwise10_ReLU21_0_split_0
[2018-04-23 20:40:23]  I0423 12:39:45.839846    21 net.cpp:380] Eltwise10_ReLU21_0_split -> Eltwise10_ReLU21_0_split_1
[2018-04-23 20:40:23]  I0423 12:39:45.839967    21 net.cpp:122] Setting up Eltwise10_ReLU21_0_split
[2018-04-23 20:40:23]  I0423 12:39:45.840018    21 net.cpp:129] Top shape: 64 256 4 4 (262144)
[2018-04-23 20:40:23]  I0423 12:39:45.840046    21 net.cpp:129] Top shape: 64 256 4 4 (262144)
[2018-04-23 20:40:23]  I0423 12:39:45.840070    21 net.cpp:137] Memory required for data: 571474688
[2018-04-23 20:40:23]  I0423 12:39:45.840111    21 layer_factory.hpp:77] Creating layer Convolution25
[2018-04-23 20:40:23]  I0423 12:39:45.840163    21 net.cpp:84] Creating Layer Convolution25
[2018-04-23 20:40:23]  I0423 12:39:45.840207    21 net.cpp:406] Convolution25 <- Eltwise10_ReLU21_0_split_0
[2018-04-23 20:40:23]  I0423 12:39:45.840265    21 net.cpp:380] Convolution25 -> Convolution25
[2018-04-23 20:40:23]  I0423 12:39:45.852119    21 net.cpp:122] Setting up Convolution25
[2018-04-23 20:40:23]  I0423 12:39:45.852190    21 net.cpp:129] Top shape: 64 256 4 4 (262144)
[2018-04-23 20:40:23]  I0423 12:39:45.852221    21 net.cpp:137] Memory required for data: 572523264
[2018-04-23 20:40:23]  I0423 12:39:45.852275    21 layer_factory.hpp:77] Creating layer BatchNorm25
[2018-04-23 20:40:23]  I0423 12:39:45.852313    21 net.cpp:84] Creating Layer BatchNorm25
[2018-04-23 20:40:23]  I0423 12:39:45.852356    21 net.cpp:406] BatchNorm25 <- Convolution25
[2018-04-23 20:40:23]  I0423 12:39:45.852489    21 net.cpp:367] BatchNorm25 -> Convolution25 (in-place)
[2018-04-23 20:40:23]  I0423 12:39:45.852902    21 net.cpp:122] Setting up BatchNorm25
[2018-04-23 20:40:23]  I0423 12:39:45.852957    21 net.cpp:129] Top shape: 64 256 4 4 (262144)
[2018-04-23 20:40:23]  I0423 12:39:45.852985    21 net.cpp:137] Memory required for data: 573571840
[2018-04-23 20:40:23]  I0423 12:39:45.853031    21 layer_factory.hpp:77] Creating layer Scale25
[2018-04-23 20:40:23]  I0423 12:39:45.853096    21 net.cpp:84] Creating Layer Scale25
[2018-04-23 20:40:23]  I0423 12:39:45.853133    21 net.cpp:406] Scale25 <- Convolution25
[2018-04-23 20:40:23]  I0423 12:39:45.853171    21 net.cpp:367] Scale25 -> Convolution25 (in-place)
[2018-04-23 20:40:23]  I0423 12:39:45.853299    21 layer_factory.hpp:77] Creating layer Scale25
[2018-04-23 20:40:23]  I0423 12:39:45.853617    21 net.cpp:122] Setting up Scale25
[2018-04-23 20:40:23]  I0423 12:39:45.853675    21 net.cpp:129] Top shape: 64 256 4 4 (262144)
[2018-04-23 20:40:24]  I0423 12:39:45.853713    21 net.cpp:137] Memory required for data: 574620416
[2018-04-23 20:40:24]  I0423 12:39:45.853750    21 layer_factory.hpp:77] Creating layer ReLU22
[2018-04-23 20:40:24]  I0423 12:39:45.853816    21 net.cpp:84] Creating Layer ReLU22
[2018-04-23 20:40:24]  I0423 12:39:45.853849    21 net.cpp:406] ReLU22 <- Convolution25
[2018-04-23 20:40:24]  I0423 12:39:45.853891    21 net.cpp:367] ReLU22 -> Convolution25 (in-place)
[2018-04-23 20:40:24]  I0423 12:39:45.854300    21 net.cpp:122] Setting up ReLU22
[2018-04-23 20:40:24]  I0423 12:39:45.854358    21 net.cpp:129] Top shape: 64 256 4 4 (262144)
[2018-04-23 20:40:24]  I0423 12:39:45.854387    21 net.cpp:137] Memory required for data: 575668992
[2018-04-23 20:40:24]  I0423 12:39:45.854413    21 layer_factory.hpp:77] Creating layer Convolution26
[2018-04-23 20:40:24]  I0423 12:39:45.854511    21 net.cpp:84] Creating Layer Convolution26
[2018-04-23 20:40:24]  I0423 12:39:45.854552    21 net.cpp:406] Convolution26 <- Convolution25
[2018-04-23 20:40:24]  I0423 12:39:45.854595    21 net.cpp:380] Convolution26 -> Convolution26
[2018-04-23 20:40:24]  I0423 12:39:45.863227    21 net.cpp:122] Setting up Convolution26
[2018-04-23 20:40:24]  I0423 12:39:45.863298    21 net.cpp:129] Top shape: 64 256 4 4 (262144)
[2018-04-23 20:40:24]  I0423 12:39:45.863330    21 net.cpp:137] Memory required for data: 576717568
[2018-04-23 20:40:24]  I0423 12:39:45.863373    21 layer_factory.hpp:77] Creating layer BatchNorm26
[2018-04-23 20:40:24]  I0423 12:39:45.863433    21 net.cpp:84] Creating Layer BatchNorm26
[2018-04-23 20:40:24]  I0423 12:39:45.863481    21 net.cpp:406] BatchNorm26 <- Convolution26
[2018-04-23 20:40:24]  I0423 12:39:45.863529    21 net.cpp:367] BatchNorm26 -> Convolution26 (in-place)
[2018-04-23 20:40:24]  I0423 12:39:45.863909    21 net.cpp:122] Setting up BatchNorm26
[2018-04-23 20:40:24]  I0423 12:39:45.863962    21 net.cpp:129] Top shape: 64 256 4 4 (262144)
[2018-04-23 20:40:24]  I0423 12:39:45.864003    21 net.cpp:137] Memory required for data: 577766144
[2018-04-23 20:40:24]  I0423 12:39:45.864044    21 layer_factory.hpp:77] Creating layer Scale26
[2018-04-23 20:40:24]  I0423 12:39:45.864089    21 net.cpp:84] Creating Layer Scale26
[2018-04-23 20:40:24]  I0423 12:39:45.864130    21 net.cpp:406] Scale26 <- Convolution26
[2018-04-23 20:40:24]  I0423 12:39:45.864172    21 net.cpp:367] Scale26 -> Convolution26 (in-place)
[2018-04-23 20:40:24]  I0423 12:39:45.864306    21 layer_factory.hpp:77] Creating layer Scale26
[2018-04-23 20:40:24]  I0423 12:39:45.864616    21 net.cpp:122] Setting up Scale26
[2018-04-23 20:40:24]  I0423 12:39:45.864670    21 net.cpp:129] Top shape: 64 256 4 4 (262144)
[2018-04-23 20:40:24]  I0423 12:39:45.864699    21 net.cpp:137] Memory required for data: 578814720
[2018-04-23 20:40:24]  I0423 12:39:45.864728    21 layer_factory.hpp:77] Creating layer Eltwise11
[2018-04-23 20:40:24]  I0423 12:39:45.864781    21 net.cpp:84] Creating Layer Eltwise11
[2018-04-23 20:40:24]  I0423 12:39:45.864831    21 net.cpp:406] Eltwise11 <- Eltwise10_ReLU21_0_split_1
[2018-04-23 20:40:24]  I0423 12:39:45.864873    21 net.cpp:406] Eltwise11 <- Convolution26
[2018-04-23 20:40:24]  I0423 12:39:45.864907    21 net.cpp:380] Eltwise11 -> Eltwise11
[2018-04-23 20:40:24]  I0423 12:39:45.865022    21 net.cpp:122] Setting up Eltwise11
[2018-04-23 20:40:24]  I0423 12:39:45.865073    21 net.cpp:129] Top shape: 64 256 4 4 (262144)
[2018-04-23 20:40:24]  I0423 12:39:45.865101    21 net.cpp:137] Memory required for data: 579863296
[2018-04-23 20:40:24]  I0423 12:39:45.865135    21 layer_factory.hpp:77] Creating layer ReLU23
[2018-04-23 20:40:24]  I0423 12:39:45.865176    21 net.cpp:84] Creating Layer ReLU23
[2018-04-23 20:40:24]  I0423 12:39:45.865214    21 net.cpp:406] ReLU23 <- Eltwise11
[2018-04-23 20:40:24]  I0423 12:39:45.865273    21 net.cpp:367] ReLU23 -> Eltwise11 (in-place)
[2018-04-23 20:40:24]  I0423 12:39:45.865861    21 net.cpp:122] Setting up ReLU23
[2018-04-23 20:40:24]  I0423 12:39:45.865927    21 net.cpp:129] Top shape: 64 256 4 4 (262144)
[2018-04-23 20:40:24]  I0423 12:39:45.865957    21 net.cpp:137] Memory required for data: 580911872
[2018-04-23 20:40:24]  I0423 12:39:45.866003    21 layer_factory.hpp:77] Creating layer Eltwise11_ReLU23_0_split
[2018-04-23 20:40:24]  I0423 12:39:45.866055    21 net.cpp:84] Creating Layer Eltwise11_ReLU23_0_split
[2018-04-23 20:40:24]  I0423 12:39:45.866091    21 net.cpp:406] Eltwise11_ReLU23_0_split <- Eltwise11
[2018-04-23 20:40:24]  I0423 12:39:45.866144    21 net.cpp:380] Eltwise11_ReLU23_0_split -> Eltwise11_ReLU23_0_split_0
[2018-04-23 20:40:24]  I0423 12:39:45.866186    21 net.cpp:380] Eltwise11_ReLU23_0_split -> Eltwise11_ReLU23_0_split_1
[2018-04-23 20:40:24]  I0423 12:39:45.866338    21 net.cpp:122] Setting up Eltwise11_ReLU23_0_split
[2018-04-23 20:40:24]  I0423 12:39:45.866420    21 net.cpp:129] Top shape: 64 256 4 4 (262144)
[2018-04-23 20:40:24]  I0423 12:39:45.866456    21 net.cpp:129] Top shape: 64 256 4 4 (262144)
[2018-04-23 20:40:24]  I0423 12:39:45.866524    21 net.cpp:137] Memory required for data: 583009024
[2018-04-23 20:40:24]  I0423 12:39:45.866559    21 layer_factory.hpp:77] Creating layer Convolution27
[2018-04-23 20:40:24]  I0423 12:39:45.866616    21 net.cpp:84] Creating Layer Convolution27
[2018-04-23 20:40:24]  I0423 12:39:45.866654    21 net.cpp:406] Convolution27 <- Eltwise11_ReLU23_0_split_0
[2018-04-23 20:40:24]  I0423 12:39:45.866708    21 net.cpp:380] Convolution27 -> Convolution27
[2018-04-23 20:40:24]  I0423 12:39:45.875360    21 net.cpp:122] Setting up Convolution27
[2018-04-23 20:40:24]  I0423 12:39:45.875430    21 net.cpp:129] Top shape: 64 256 4 4 (262144)
[2018-04-23 20:40:24]  I0423 12:39:45.875473    21 net.cpp:137] Memory required for data: 584057600
[2018-04-23 20:40:24]  I0423 12:39:45.875530    21 layer_factory.hpp:77] Creating layer BatchNorm27
[2018-04-23 20:40:24]  I0423 12:39:45.875576    21 net.cpp:84] Creating Layer BatchNorm27
[2018-04-23 20:40:24]  I0423 12:39:45.875612    21 net.cpp:406] BatchNorm27 <- Convolution27
[2018-04-23 20:40:24]  I0423 12:39:45.875653    21 net.cpp:367] BatchNorm27 -> Convolution27 (in-place)
[2018-04-23 20:40:24]  I0423 12:39:45.876068    21 net.cpp:122] Setting up BatchNorm27
[2018-04-23 20:40:24]  I0423 12:39:45.876125    21 net.cpp:129] Top shape: 64 256 4 4 (262144)
[2018-04-23 20:40:24]  I0423 12:39:45.876153    21 net.cpp:137] Memory required for data: 585106176
[2018-04-23 20:40:24]  I0423 12:39:45.876204    21 layer_factory.hpp:77] Creating layer Scale27
[2018-04-23 20:40:24]  I0423 12:39:45.876322    21 net.cpp:84] Creating Layer Scale27
[2018-04-23 20:40:24]  I0423 12:39:45.876372    21 net.cpp:406] Scale27 <- Convolution27
[2018-04-23 20:40:24]  I0423 12:39:45.876405    21 net.cpp:367] Scale27 -> Convolution27 (in-place)
[2018-04-23 20:40:24]  I0423 12:39:45.876545    21 layer_factory.hpp:77] Creating layer Scale27
[2018-04-23 20:40:24]  I0423 12:39:45.876835    21 net.cpp:122] Setting up Scale27
[2018-04-23 20:40:24]  I0423 12:39:45.876885    21 net.cpp:129] Top shape: 64 256 4 4 (262144)
[2018-04-23 20:40:24]  I0423 12:39:45.876914    21 net.cpp:137] Memory required for data: 586154752
[2018-04-23 20:40:24]  I0423 12:39:45.876974    21 layer_factory.hpp:77] Creating layer ReLU24
[2018-04-23 20:40:24]  I0423 12:39:45.877020    21 net.cpp:84] Creating Layer ReLU24
[2018-04-23 20:40:24]  I0423 12:39:45.877054    21 net.cpp:406] ReLU24 <- Convolution27
[2018-04-23 20:40:24]  I0423 12:39:45.877105    21 net.cpp:367] ReLU24 -> Convolution27 (in-place)
[2018-04-23 20:40:24]  I0423 12:39:45.877678    21 net.cpp:122] Setting up ReLU24
[2018-04-23 20:40:25]  I0423 12:39:45.877743    21 net.cpp:129] Top shape: 64 256 4 4 (262144)
[2018-04-23 20:40:25]  I0423 12:39:45.877782    21 net.cpp:137] Memory required for data: 587203328
[2018-04-23 20:40:25]  I0423 12:39:45.877815    21 layer_factory.hpp:77] Creating layer Convolution28
[2018-04-23 20:40:25]  I0423 12:39:45.877871    21 net.cpp:84] Creating Layer Convolution28
[2018-04-23 20:40:25]  I0423 12:39:45.877918    21 net.cpp:406] Convolution28 <- Convolution27
[2018-04-23 20:40:25]  I0423 12:39:45.877970    21 net.cpp:380] Convolution28 -> Convolution28
[2018-04-23 20:40:25]  I0423 12:39:45.886715    21 net.cpp:122] Setting up Convolution28
[2018-04-23 20:40:25]  I0423 12:39:45.886787    21 net.cpp:129] Top shape: 64 256 4 4 (262144)
[2018-04-23 20:40:25]  I0423 12:39:45.886831    21 net.cpp:137] Memory required for data: 588251904
[2018-04-23 20:40:25]  I0423 12:39:45.886871    21 layer_factory.hpp:77] Creating layer BatchNorm28
[2018-04-23 20:40:25]  I0423 12:39:45.886905    21 net.cpp:84] Creating Layer BatchNorm28
[2018-04-23 20:40:25]  I0423 12:39:45.886941    21 net.cpp:406] BatchNorm28 <- Convolution28
[2018-04-23 20:40:25]  I0423 12:39:45.887004    21 net.cpp:367] BatchNorm28 -> Convolution28 (in-place)
[2018-04-23 20:40:25]  I0423 12:39:45.887415    21 net.cpp:122] Setting up BatchNorm28
[2018-04-23 20:40:25]  I0423 12:39:45.887468    21 net.cpp:129] Top shape: 64 256 4 4 (262144)
[2018-04-23 20:40:25]  I0423 12:39:45.887521    21 net.cpp:137] Memory required for data: 589300480
[2018-04-23 20:40:25]  I0423 12:39:45.887563    21 layer_factory.hpp:77] Creating layer Scale28
[2018-04-23 20:40:25]  I0423 12:39:45.887596    21 net.cpp:84] Creating Layer Scale28
[2018-04-23 20:40:25]  I0423 12:39:45.887626    21 net.cpp:406] Scale28 <- Convolution28
[2018-04-23 20:40:25]  I0423 12:39:45.887671    21 net.cpp:367] Scale28 -> Convolution28 (in-place)
[2018-04-23 20:40:25]  I0423 12:39:45.887789    21 layer_factory.hpp:77] Creating layer Scale28
[2018-04-23 20:40:25]  I0423 12:39:45.888077    21 net.cpp:122] Setting up Scale28
[2018-04-23 20:40:25]  I0423 12:39:45.888133    21 net.cpp:129] Top shape: 64 256 4 4 (262144)
[2018-04-23 20:40:25]  I0423 12:39:45.888161    21 net.cpp:137] Memory required for data: 590349056
[2018-04-23 20:40:25]  I0423 12:39:45.888209    21 layer_factory.hpp:77] Creating layer Eltwise12
[2018-04-23 20:40:25]  I0423 12:39:45.888280    21 net.cpp:84] Creating Layer Eltwise12
[2018-04-23 20:40:25]  I0423 12:39:45.888321    21 net.cpp:406] Eltwise12 <- Eltwise11_ReLU23_0_split_1
[2018-04-23 20:40:25]  I0423 12:39:45.888361    21 net.cpp:406] Eltwise12 <- Convolution28
[2018-04-23 20:40:25]  I0423 12:39:45.888397    21 net.cpp:380] Eltwise12 -> Eltwise12
[2018-04-23 20:40:25]  I0423 12:39:45.888535    21 net.cpp:122] Setting up Eltwise12
[2018-04-23 20:40:25]  I0423 12:39:45.888584    21 net.cpp:129] Top shape: 64 256 4 4 (262144)
[2018-04-23 20:40:25]  I0423 12:39:45.888623    21 net.cpp:137] Memory required for data: 591397632
[2018-04-23 20:40:25]  I0423 12:39:45.888655    21 layer_factory.hpp:77] Creating layer ReLU25
[2018-04-23 20:40:25]  I0423 12:39:45.888691    21 net.cpp:84] Creating Layer ReLU25
[2018-04-23 20:40:25]  I0423 12:39:45.888720    21 net.cpp:406] ReLU25 <- Eltwise12
[2018-04-23 20:40:25]  I0423 12:39:45.888787    21 net.cpp:367] ReLU25 -> Eltwise12 (in-place)
[2018-04-23 20:40:25]  I0423 12:39:45.889204    21 net.cpp:122] Setting up ReLU25
[2018-04-23 20:40:25]  I0423 12:39:45.889264    21 net.cpp:129] Top shape: 64 256 4 4 (262144)
[2018-04-23 20:40:25]  I0423 12:39:45.889303    21 net.cpp:137] Memory required for data: 592446208
[2018-04-23 20:40:25]  I0423 12:39:45.889376    21 layer_factory.hpp:77] Creating layer Pooling1
[2018-04-23 20:40:25]  I0423 12:39:45.889438    21 net.cpp:84] Creating Layer Pooling1
[2018-04-23 20:40:25]  I0423 12:39:45.889482    21 net.cpp:406] Pooling1 <- Eltwise12
[2018-04-23 20:40:25]  I0423 12:39:45.889564    21 net.cpp:380] Pooling1 -> Pooling1
[2018-04-23 20:40:25]  I0423 12:39:45.890274    21 net.cpp:122] Setting up Pooling1
[2018-04-23 20:40:25]  I0423 12:39:45.890338    21 net.cpp:129] Top shape: 64 256 1 1 (16384)
[2018-04-23 20:40:25]  I0423 12:39:45.890388    21 net.cpp:137] Memory required for data: 592511744
[2018-04-23 20:40:25]  I0423 12:39:45.890439    21 layer_factory.hpp:77] Creating layer InnerProduct1
[2018-04-23 20:40:25]  I0423 12:39:45.890528    21 net.cpp:84] Creating Layer InnerProduct1
[2018-04-23 20:40:25]  I0423 12:39:45.890588    21 net.cpp:406] InnerProduct1 <- Pooling1
[2018-04-23 20:40:25]  I0423 12:39:45.890640    21 net.cpp:380] InnerProduct1 -> InnerProduct1
[2018-04-23 20:40:25]  I0423 12:39:45.891115    21 net.cpp:122] Setting up InnerProduct1
[2018-04-23 20:40:25]  I0423 12:39:45.891170    21 net.cpp:129] Top shape: 64 100 (6400)
[2018-04-23 20:40:25]  I0423 12:39:45.891211    21 net.cpp:137] Memory required for data: 592537344
[2018-04-23 20:40:25]  I0423 12:39:45.891260    21 layer_factory.hpp:77] Creating layer InnerProduct1_InnerProduct1_0_split
[2018-04-23 20:40:25]  I0423 12:39:45.891309    21 net.cpp:84] Creating Layer InnerProduct1_InnerProduct1_0_split
[2018-04-23 20:40:25]  I0423 12:39:45.891351    21 net.cpp:406] InnerProduct1_InnerProduct1_0_split <- InnerProduct1
[2018-04-23 20:40:25]  I0423 12:39:45.891402    21 net.cpp:380] InnerProduct1_InnerProduct1_0_split -> InnerProduct1_InnerProduct1_0_split_0
[2018-04-23 20:40:25]  I0423 12:39:45.891455    21 net.cpp:380] InnerProduct1_InnerProduct1_0_split -> InnerProduct1_InnerProduct1_0_split_1
[2018-04-23 20:40:25]  I0423 12:39:45.891619    21 net.cpp:122] Setting up InnerProduct1_InnerProduct1_0_split
[2018-04-23 20:40:25]  I0423 12:39:45.891674    21 net.cpp:129] Top shape: 64 100 (6400)
[2018-04-23 20:40:25]  I0423 12:39:45.891712    21 net.cpp:129] Top shape: 64 100 (6400)
[2018-04-23 20:40:25]  I0423 12:39:45.891743    21 net.cpp:137] Memory required for data: 592588544
[2018-04-23 20:40:25]  I0423 12:39:45.891786    21 layer_factory.hpp:77] Creating layer SoftmaxWithLoss1
[2018-04-23 20:40:25]  I0423 12:39:45.891854    21 net.cpp:84] Creating Layer SoftmaxWithLoss1
[2018-04-23 20:40:25]  I0423 12:39:45.891891    21 net.cpp:406] SoftmaxWithLoss1 <- InnerProduct1_InnerProduct1_0_split_0
…
[2018-04-23 20:40:55]  I0423 12:39:45.902693    21 net.cpp:380] data -> label
[2018-04-23 20:40:55]  I0423 12:39:45.902750    21 image_data_layer.cpp:38] Opening file ./mydata/val.txt
[2018-04-23 20:40:55]  I0423 12:39:45.906641    21 image_data_layer.cpp:53] Shuffling data
[2018-04-23 20:40:55]  I0423 12:39:45.907325    21 image_data_layer.cpp:63] A total of 5000 images.
[2018-04-23 20:40:55]  I0423 12:39:45.908455    21 image_data_layer.cpp:90] output data size: 32,3,64,64
[2018-04-23 20:40:55]  I0423 12:39:45.921597    21 net.cpp:122] Setting up data
[2018-04-23 20:40:55]  I0423 12:39:45.921659    21 net.cpp:129] Top shape: 32 3 64 64 (393216)
[2018-04-23 20:40:55]  I0423 12:39:45.921691    21 net.cpp:129] Top shape: 32 (32)
[2018-04-23 20:40:55]  I0423 12:39:45.921727    21 net.cpp:137] Memory required for data: 1572992
[2018-04-23 20:40:55]  I0423 12:39:45.921753    21 layer_factory.hpp:77] Creating layer label_data_1_split
[2018-04-23 20:40:55]  I0423 12:39:45.921783    21 net.cpp:84] Creating Layer label_data_1_split
[2018-04-23 20:40:55]  I0423 12:39:45.921818    21 net.cpp:406] label_data_1_split <- label
[2018-04-23 20:40:55]  I0423 12:39:45.921859    21 net.cpp:380] label_data_1_split -> label_data_1_split_0
[2018-04-23 20:40:55]  I0423 12:39:45.921950    21 net.cpp:380] label_data_1_split -> label_data_1_split_1
[2018-04-23 20:40:55]  I0423 12:39:45.922224    21 net.cpp:122] Setting up label_data_1_split
[2018-04-23 20:40:55]  I0423 12:39:45.922281    21 net.cpp:129] Top shape: 32 (32)
[2018-04-23 20:40:55]  I0423 12:39:45.922322    21 net.cpp:129] Top shape: 32 (32)
[2018-04-23 20:40:55]  I0423 12:39:45.922345    21 net.cpp:137] Memory required for data: 1573248
[2018-04-23 20:40:55]  I0423 12:39:45.922390    21 layer_factory.hpp:77] Creating layer Convolution1
[2018-04-23 20:40:55]  I0423 12:39:45.922459    21 net.cpp:84] Creating Layer Convolution1
[2018-04-23 20:40:55]  I0423 12:39:45.922525    21 net.cpp:406] Convolution1 <- data
[2018-04-23 20:40:55]  I0423 12:39:45.922564    21 net.cpp:380] Convolution1 -> Convolution1
[2018-04-23 20:40:55]  I0423 12:39:45.924600    21 net.cpp:122] Setting up Convolution1
[2018-04-23 20:40:55]  I0423 12:39:45.924669    21 net.cpp:129] Top shape: 32 32 32 32 (1048576)
[2018-04-23 20:40:55]  I0423 12:39:45.924701    21 net.cpp:137] Memory required for data: 5767552
[2018-04-23 20:40:55]  I0423 12:39:45.924757    21 layer_factory.hpp:77] Creating layer BatchNorm1
[2018-04-23 20:40:55]  I0423 12:39:45.924820    21 net.cpp:84] Creating Layer BatchNorm1
[2018-04-23 20:40:55]  I0423 12:39:45.924865    21 net.cpp:406] BatchNorm1 <- Convolution1
[2018-04-23 20:40:55]  I0423 12:39:45.924896    21 net.cpp:367] BatchNorm1 -> Convolution1 (in-place)
[2018-04-23 20:40:55]  I0423 12:39:45.925251    21 net.cpp:122] Setting up BatchNorm1
[2018-04-23 20:40:55]  I0423 12:39:45.925308    21 net.cpp:129] Top shape: 32 32 32 32 (1048576)
[2018-04-23 20:40:55]  I0423 12:39:45.925379    21 net.cpp:137] Memory required for data: 9961856
[2018-04-23 20:40:55]  I0423 12:39:45.925427    21 layer_factory.hpp:77] Creating layer Scale1
[2018-04-23 20:40:55]  I0423 12:39:45.925508    21 net.cpp:84] Creating Layer Scale1
[2018-04-23 20:40:55]  I0423 12:39:45.925536    21 net.cpp:406] Scale1 <- Convolution1
[2018-04-23 20:40:55]  I0423 12:39:45.925590    21 net.cpp:367] Scale1 -> Convolution1 (in-place)
[2018-04-23 20:40:55]  I0423 12:39:45.925832    21 layer_factory.hpp:77] Creating layer Scale1
[2018-04-23 20:40:55]  I0423 12:39:45.926090    21 net.cpp:122] Setting up Scale1
[2018-04-23 20:40:55]  I0423 12:39:45.926146    21 net.cpp:129] Top shape: 32 32 32 32 (1048576)
[2018-04-23 20:40:55]  I0423 12:39:45.926182    21 net.cpp:137] Memory required for data: 14156160
[2018-04-23 20:40:55]  I0423 12:39:45.926220    21 layer_factory.hpp:77] Creating layer ReLU1
[2018-04-23 20:40:55]  I0423 12:39:45.926257    21 net.cpp:84] Creating Layer ReLU1
[2018-04-23 20:40:55]  I0423 12:39:45.926293    21 net.cpp:406] ReLU1 <- Convolution1
[2018-04-23 20:40:55]  I0423 12:39:45.926334    21 net.cpp:367] ReLU1 -> Convolution1 (in-place)
[2018-04-23 20:40:55]  I0423 12:39:45.926760    21 net.cpp:122] Setting up ReLU1
[2018-04-23 20:40:55]  I0423 12:39:45.926815    21 net.cpp:129] Top shape: 32 32 32 32 (1048576)
[2018-04-23 20:40:55]  I0423 12:39:45.926853    21 net.cpp:137] Memory required for data: 18350464
[2018-04-23 20:40:55]  I0423 12:39:45.926887    21 layer_factory.hpp:77] Creating layer Convolution1_ReLU1_0_split
[2018-04-23 20:40:55]  I0423 12:39:45.926937    21 net.cpp:84] Creating Layer Convolution1_ReLU1_0_split
[2018-04-23 20:40:55]  I0423 12:39:45.926971    21 net.cpp:406] Convolution1_ReLU1_0_split <- Convolution1
[2018-04-23 20:40:55]  I0423 12:39:45.927023    21 net.cpp:380] Convolution1_ReLU1_0_split -> Convolution1_ReLU1_0_split_0
[2018-04-23 20:40:55]  I0423 12:39:45.927068    21 net.cpp:380] Convolution1_ReLU1_0_split -> Convolution1_ReLU1_0_split_1
[2018-04-23 20:40:55]  I0423 12:39:45.927207    21 net.cpp:122] Setting up Convolution1_ReLU1_0_split
[2018-04-23 20:40:55]  I0423 12:39:45.927258    21 net.cpp:129] Top shape: 32 32 32 32 (1048576)
[2018-04-23 20:40:55]  I0423 12:39:45.927297    21 net.cpp:129] Top shape: 32 32 32 32 (1048576)
[2018-04-23 20:40:55]  I0423 12:39:45.927328    21 net.cpp:137] Memory required for data: 26739072
[2018-04-23 20:40:55]  I0423 12:39:45.927366    21 layer_factory.hpp:77] Creating layer Convolution2
[2018-04-23 20:40:55]  I0423 12:39:45.927429    21 net.cpp:84] Creating Layer Convolution2
[2018-04-23 20:40:55]  I0423 12:39:45.927470    21 net.cpp:406] Convolution2 <- Convolution1_ReLU1_0_split_0
[2018-04-23 20:40:55]  I0423 12:39:45.927533    21 net.cpp:380] Convolution2 -> Convolution2
[2018-04-23 20:40:56]  I0423 12:39:45.929424    21 net.cpp:122] Setting up Convolution2
[2018-04-23 20:40:56]  I0423 12:39:45.929500    21 net.cpp:129] Top shape: 32 32 32 32 (1048576)
[2018-04-23 20:40:56]  I0423 12:39:45.929536    21 net.cpp:137] Memory required for data: 30933376
[2018-04-23 20:40:56]  I0423 12:39:45.929600    21 layer_factory.hpp:77] Creating layer BatchNorm2
[2018-04-23 20:40:56]  I0423 12:39:45.929692    21 net.cpp:84] Creating Layer BatchNorm2
[2018-04-23 20:40:56]  I0423 12:39:45.929730    21 net.cpp:406] BatchNorm2 <- Convolution2
[2018-04-23 20:40:56]  I0423 12:39:45.929783    21 net.cpp:367] BatchNorm2 -> Convolution2 (in-place)
[2018-04-23 20:40:56]  I0423 12:39:45.930275    21 net.cpp:122] Setting up BatchNorm2
[2018-04-23 20:40:56]  I0423 12:39:45.930331    21 net.cpp:129] Top shape: 32 32 32 32 (1048576)
[2018-04-23 20:40:56]  I0423 12:39:45.930362    21 net.cpp:137] Memory required for data: 35127680
[2018-04-23 20:40:56]  I0423 12:39:45.930408    21 layer_factory.hpp:77] Creating layer Scale2
[2018-04-23 20:40:56]  I0423 12:39:45.930450    21 net.cpp:84] Creating Layer Scale2
[2018-04-23 20:40:56]  I0423 12:39:45.930503    21 net.cpp:406] Scale2 <- Convolution2
[2018-04-23 20:40:56]  I0423 12:39:45.930543    21 net.cpp:367] Scale2 -> Convolution2 (in-place)
[2018-04-23 20:40:56]  I0423 12:39:45.930691    21 layer_factory.hpp:77] Creating layer Scale2
[2018-04-23 20:40:56]  I0423 12:39:45.930979    21 net.cpp:122] Setting up Scale2
[2018-04-23 20:40:56]  I0423 12:39:45.931031    21 net.cpp:129] Top shape: 32 32 32 32 (1048576)
[2018-04-23 20:40:56]  I0423 12:39:45.931061    21 net.cpp:137] Memory required for data: 39321984
[2018-04-23 20:40:56]  I0423 12:39:45.931110    21 layer_factory.hpp:77] Creating layer ReLU2
[2018-04-23 20:40:56]  I0423 12:39:45.931150    21 net.cpp:84] Creating Layer ReLU2
[2018-04-23 20:40:56]  I0423 12:39:45.931196    21 net.cpp:406] ReLU2 <- Convolution2
[2018-04-23 20:40:56]  I0423 12:39:45.931241    21 net.cpp:367] ReLU2 -> Convolution2 (in-place)
[2018-04-23 20:40:56]  I0423 12:39:45.931650    21 net.cpp:122] Setting up ReLU2
[2018-04-23 20:40:56]  I0423 12:39:45.931710    21 net.cpp:129] Top shape: 32 32 32 32 (1048576)
[2018-04-23 20:40:56]  I0423 12:39:45.931740    21 net.cpp:137] Memory required for data: 43516288
[2018-04-23 20:40:56]  I0423 12:39:45.931772    21 layer_factory.hpp:77] Creating layer Convolution3
[2018-04-23 20:40:56]  I0423 12:39:45.931829    21 net.cpp:84] Creating Layer Convolution3
[2018-04-23 20:40:56]  I0423 12:39:45.931866    21 net.cpp:406] Convolution3 <- Convolution2
[2018-04-23 20:40:56]  I0423 12:39:45.931924    21 net.cpp:380] Convolution3 -> Convolution3
[2018-04-23 20:40:56]  I0423 12:39:45.934293    21 net.cpp:122] Setting up Convolution3
[2018-04-23 20:40:56]  I0423 12:39:45.934360    21 net.cpp:129] Top shape: 32 32 32 32 (1048576)
[2018-04-23 20:40:56]  I0423 12:39:45.934391    21 net.cpp:137] Memory required for data: 47710592
[2018-04-23 20:40:56]  I0423 12:39:45.934430    21 layer_factory.hpp:77] Creating layer BatchNorm3
[2018-04-23 20:40:56]  I0423 12:39:45.934499    21 net.cpp:84] Creating Layer BatchNorm3
[2018-04-23 20:40:56]  I0423 12:39:45.934540    21 net.cpp:406] BatchNorm3 <- Convolution3
[2018-04-23 20:40:56]  I0423 12:39:45.934588    21 net.cpp:367] BatchNorm3 -> Convolution3 (in-place)
[2018-04-23 20:40:56]  I0423 12:39:45.935060    21 net.cpp:122] Setting up BatchNorm3
[2018-04-23 20:40:56]  I0423 12:39:45.935114    21 net.cpp:129] Top shape: 32 32 32 32 (1048576)
[2018-04-23 20:40:56]  I0423 12:39:45.935142    21 net.cpp:137] Memory required for data: 51904896
[2018-04-23 20:40:56]  I0423 12:39:45.935207    21 layer_factory.hpp:77] Creating layer Scale3
[2018-04-23 20:40:56]  I0423 12:39:45.935250    21 net.cpp:84] Creating Layer Scale3
[2018-04-23 20:40:56]  I0423 12:39:45.935298    21 net.cpp:406] Scale3 <- Convolution3
[2018-04-23 20:40:56]  I0423 12:39:45.935340    21 net.cpp:367] Scale3 -> Convolution3 (in-place)
[2018-04-23 20:40:56]  I0423 12:39:45.935528    21 layer_factory.hpp:77] Creating layer Scale3
[2018-04-23 20:40:56]  I0423 12:39:45.935850    21 net.cpp:122] Setting up Scale3
[2018-04-23 20:40:56]  I0423 12:39:45.935902    21 net.cpp:129] Top shape: 32 32 32 32 (1048576)
[2018-04-23 20:40:56]  I0423 12:39:45.935940    21 net.cpp:137] Memory required for data: 56099200
[2018-04-23 20:40:56]  I0423 12:39:45.935987    21 layer_factory.hpp:77] Creating layer Eltwise1
[2018-04-23 20:40:56]  I0423 12:39:45.936053    21 net.cpp:84] Creating Layer Eltwise1
[2018-04-23 20:40:56]  I0423 12:39:45.936089    21 net.cpp:406] Eltwise1 <- Convolution1_ReLU1_0_split_1
[2018-04-23 20:40:56]  I0423 12:39:45.936133    21 net.cpp:406] Eltwise1 <- Convolution3
[2018-04-23 20:40:56]  I0423 12:39:45.936183    21 net.cpp:380] Eltwise1 -> Eltwise1
[2018-04-23 20:40:56]  I0423 12:39:45.936313    21 net.cpp:122] Setting up Eltwise1
[2018-04-23 20:40:56]  I0423 12:39:45.936362    21 net.cpp:129] Top shape: 32 32 32 32 (1048576)
[2018-04-23 20:40:56]  I0423 12:39:45.936398    21 net.cpp:137] Memory required for data: 60293504
[2018-04-23 20:40:56]  I0423 12:39:45.936424    21 layer_factory.hpp:77] Creating layer ReLU3
[2018-04-23 20:40:56]  I0423 12:39:45.936450    21 net.cpp:84] Creating Layer ReLU3
[2018-04-23 20:40:56]  I0423 12:39:45.936502    21 net.cpp:406] ReLU3 <- Eltwise1
[2018-04-23 20:40:56]  I0423 12:39:45.936553    21 net.cpp:367] ReLU3 -> Eltwise1 (in-place)
[2018-04-23 20:40:56]  I0423 12:39:45.937310    21 net.cpp:122] Setting up ReLU3
[2018-04-23 20:40:56]  I0423 12:39:45.937398    21 net.cpp:129] Top shape: 32 32 32 32 (1048576)
[2018-04-23 20:40:56]  I0423 12:39:45.937433    21 net.cpp:137] Memory required for data: 64487808
[2018-04-23 20:40:56]  I0423 12:39:45.937467    21 layer_factory.hpp:77] Creating layer Eltwise1_ReLU3_0_split
[2018-04-23 20:40:56]  I0423 12:39:45.937544    21 net.cpp:84] Creating Layer Eltwise1_ReLU3_0_split
[2018-04-23 20:40:56]  I0423 12:39:45.937589    21 net.cpp:406] Eltwise1_ReLU3_0_split <- Eltwise1
[2018-04-23 20:40:56]  I0423 12:39:45.937623    21 net.cpp:380] Eltwise1_ReLU3_0_split -> Eltwise1_ReLU3_0_split_0
[2018-04-23 20:40:56]  I0423 12:39:45.937664    21 net.cpp:380] Eltwise1_ReLU3_0_split -> Eltwise1_ReLU3_0_split_1
[2018-04-23 20:40:56]  I0423 12:39:45.937808    21 net.cpp:122] Setting up Eltwise1_ReLU3_0_split
[2018-04-23 20:40:56]  I0423 12:39:45.937857    21 net.cpp:129] Top shape: 32 32 32 32 (1048576)
[2018-04-23 20:40:56]  I0423 12:39:45.937888    21 net.cpp:129] Top shape: 32 32 32 32 (1048576)
[2018-04-23 20:40:56]  I0423 12:39:45.937919    21 net.cpp:137] Memory required for data: 72876416
[2018-04-23 20:40:56]  I0423 12:39:45.937947    21 layer_factory.hpp:77] Creating layer Convolution4
[2018-04-23 20:40:56]  I0423 12:39:45.938015    21 net.cpp:84] Creating Layer Convolution4
[2018-04-23 20:40:56]  I0423 12:39:45.938057    21 net.cpp:406] Convolution4 <- Eltwise1_ReLU3_0_split_0
[2018-04-23 20:40:56]  I0423 12:39:45.938123    21 net.cpp:380] Convolution4 -> Convolution4
[2018-04-23 20:40:56]  I0423 12:39:45.940158    21 net.cpp:122] Setting up Convolution4
[2018-04-23 20:40:56]  I0423 12:39:45.940222    21 net.cpp:129] Top shape: 32 32 32 32 (1048576)
[2018-04-23 20:40:57]  I0423 12:39:45.940256    21 net.cpp:137] Memory required for data: 77070720
[2018-04-23 20:40:57]  I0423 12:39:45.940310    21 layer_factory.hpp:77] Creating layer BatchNorm4
[2018-04-23 20:40:57]  I0423 12:39:45.940352    21 net.cpp:84] Creating Layer BatchNorm4
[2018-04-23 20:40:57]  I0423 12:39:45.940390    21 net.cpp:406] BatchNorm4 <- Convolution4
[2018-04-23 20:40:57]  I0423 12:39:45.940436    21 net.cpp:367] BatchNorm4 -> Convolution4 (in-place)
[2018-04-23 20:40:57]  I0423 12:39:45.940906    21 net.cpp:122] Setting up BatchNorm4
[2018-04-23 20:40:57]  I0423 12:39:45.940963    21 net.cpp:129] Top shape: 32 32 32 32 (1048576)
[2018-04-23 20:40:57]  I0423 12:39:45.941002    21 net.cpp:137] Memory required for data: 81265024
[2018-04-23 20:40:57]  I0423 12:39:45.941038    21 layer_factory.hpp:77] Creating layer Scale4
[2018-04-23 20:40:57]  I0423 12:39:45.941092    21 net.cpp:84] Creating Layer Scale4
[2018-04-23 20:40:57]  I0423 12:39:45.941128    21 net.cpp:406] Scale4 <- Convolution4
[2018-04-23 20:40:57]  I0423 12:39:45.941198    21 net.cpp:367] Scale4 -> Convolution4 (in-place)
[2018-04-23 20:40:57]  I0423 12:39:45.941334    21 layer_factory.hpp:77] Creating layer Scale4
[2018-04-23 20:40:57]  I0423 12:39:45.941668    21 net.cpp:122] Setting up Scale4
[2018-04-23 20:40:57]  I0423 12:39:45.941730    21 net.cpp:129] Top shape: 32 32 32 32 (1048576)
[2018-04-23 20:40:57]  I0423 12:39:45.941757    21 net.cpp:137] Memory required for data: 85459328
[2018-04-23 20:40:57]  I0423 12:39:45.941787    21 layer_factory.hpp:77] Creating layer ReLU4
[2018-04-23 20:40:57]  I0423 12:39:45.941856    21 net.cpp:84] Creating Layer ReLU4
[2018-04-23 20:40:57]  I0423 12:39:45.941889    21 net.cpp:406] ReLU4 <- Convolution4
[2018-04-23 20:40:57]  I0423 12:39:45.941942    21 net.cpp:367] ReLU4 -> Convolution4 (in-place)
[2018-04-23 20:40:57]  I0423 12:39:45.942349    21 net.cpp:122] Setting up ReLU4
[2018-04-23 20:40:57]  I0423 12:39:45.942417    21 net.cpp:129] Top shape: 32 32 32 32 (1048576)
[2018-04-23 20:40:57]  I0423 12:39:45.942466    21 net.cpp:137] Memory required for data: 89653632
[2018-04-23 20:40:57]  I0423 12:39:45.942508    21 layer_factory.hpp:77] Creating layer Convolution5
[2018-04-23 20:40:57]  I0423 12:39:45.942569    21 net.cpp:84] Creating Layer Convolution5
[2018-04-23 20:40:57]  I0423 12:39:45.942611    21 net.cpp:406] Convolution5 <- Convolution4
[2018-04-23 20:40:57]  I0423 12:39:45.942649    21 net.cpp:380] Convolution5 -> Convolution5
[2018-04-23 20:40:57]  I0423 12:39:45.944454    21 net.cpp:122] Setting up Convolution5
[2018-04-23 20:40:57]  I0423 12:39:45.944528    21 net.cpp:129] Top shape: 32 32 32 32 (1048576)
[2018-04-23 20:40:57]  I0423 12:39:45.944563    21 net.cpp:137] Memory required for data: 93847936
[2018-04-23 20:40:57]  I0423 12:39:45.944614    21 layer_factory.hpp:77] Creating layer BatchNorm5
[2018-04-23 20:40:57]  I0423 12:39:45.944682    21 net.cpp:84] Creating Layer BatchNorm5
[2018-04-23 20:40:57]  I0423 12:39:45.944713    21 net.cpp:406] BatchNorm5 <- Convolution5
[2018-04-23 20:40:57]  I0423 12:39:45.944754    21 net.cpp:367] BatchNorm5 -> Convolution5 (in-place)
[2018-04-23 20:40:57]  I0423 12:39:45.945209    21 net.cpp:122] Setting up BatchNorm5
[2018-04-23 20:40:57]  I0423 12:39:45.945261    21 net.cpp:129] Top shape: 32 32 32 32 (1048576)
[2018-04-23 20:40:57]  I0423 12:39:45.945289    21 net.cpp:137] Memory required for data: 98042240
[2018-04-23 20:40:57]  I0423 12:39:45.945364    21 layer_factory.hpp:77] Creating layer Scale5
[2018-04-23 20:40:57]  I0423 12:39:45.945432    21 net.cpp:84] Creating Layer Scale5
[2018-04-23 20:40:57]  I0423 12:39:45.945477    21 net.cpp:406] Scale5 <- Convolution5
[2018-04-23 20:40:57]  I0423 12:39:45.945538    21 net.cpp:367] Scale5 -> Convolution5 (in-place)
[2018-04-23 20:40:57]  I0423 12:39:45.948097    21 layer_factory.hpp:77] Creating layer Scale5
[2018-04-23 20:40:57]  I0423 12:39:45.948698    21 net.cpp:122] Setting up Scale5
[2018-04-23 20:40:57]  I0423 12:39:45.948755    21 net.cpp:129] Top shape: 32 32 32 32 (1048576)
[2018-04-23 20:40:57]  I0423 12:39:45.948781    21 net.cpp:137] Memory required for data: 102236544
[2018-04-23 20:40:57]  I0423 12:39:45.948830    21 layer_factory.hpp:77] Creating layer Eltwise2
[2018-04-23 20:40:57]  I0423 12:39:45.948868    21 net.cpp:84] Creating Layer Eltwise2
[2018-04-23 20:40:57]  I0423 12:39:45.948904    21 net.cpp:406] Eltwise2 <- Eltwise1_ReLU3_0_split_1
[2018-04-23 20:40:57]  I0423 12:39:45.948943    21 net.cpp:406] Eltwise2 <- Convolution5
[2018-04-23 20:40:57]  I0423 12:39:45.949014    21 net.cpp:380] Eltwise2 -> Eltwise2
[2018-04-23 20:40:57]  I0423 12:39:45.949131    21 net.cpp:122] Setting up Eltwise2
[2018-04-23 20:40:57]  I0423 12:39:45.949180    21 net.cpp:129] Top shape: 32 32 32 32 (1048576)
[2018-04-23 20:40:57]  I0423 12:39:45.949213    21 net.cpp:137] Memory required for data: 106430848
[2018-04-23 20:40:57]  I0423 12:39:45.949246    21 layer_factory.hpp:77] Creating layer ReLU5
[2018-04-23 20:40:57]  I0423 12:39:45.949290    21 net.cpp:84] Creating Layer ReLU5
[2018-04-23 20:40:57]  I0423 12:39:45.949326    21 net.cpp:406] ReLU5 <- Eltwise2
[2018-04-23 20:40:57]  I0423 12:39:45.949400    21 net.cpp:367] ReLU5 -> Eltwise2 (in-place)
[2018-04-23 20:40:57]  I0423 12:39:45.949831    21 net.cpp:122] Setting up ReLU5
[2018-04-23 20:40:57]  I0423 12:39:45.949890    21 net.cpp:129] Top shape: 32 32 32 32 (1048576)
[2018-04-23 20:40:57]  I0423 12:39:45.949923    21 net.cpp:137] Memory required for data: 110625152
[2018-04-23 20:40:57]  I0423 12:39:45.949949    21 layer_factory.hpp:77] Creating layer Eltwise2_ReLU5_0_split
[2018-04-23 20:40:57]  I0423 12:39:45.949987    21 net.cpp:84] Creating Layer Eltwise2_ReLU5_0_split
[2018-04-23 20:40:57]  I0423 12:39:45.950022    21 net.cpp:406] Eltwise2_ReLU5_0_split <- Eltwise2
[2018-04-23 20:40:57]  I0423 12:39:45.950073    21 net.cpp:380] Eltwise2_ReLU5_0_split -> Eltwise2_ReLU5_0_split_0
[2018-04-23 20:40:57]  I0423 12:39:45.950117    21 net.cpp:380] Eltwise2_ReLU5_0_split -> Eltwise2_ReLU5_0_split_1
[2018-04-23 20:40:57]  I0423 12:39:45.950269    21 net.cpp:122] Setting up Eltwise2_ReLU5_0_split
[2018-04-23 20:40:57]  I0423 12:39:45.950320    21 net.cpp:129] Top shape: 32 32 32 32 (1048576)
[2018-04-23 20:40:57]  I0423 12:39:45.950361    21 net.cpp:129] Top shape: 32 32 32 32 (1048576)
[2018-04-23 20:40:57]  I0423 12:39:45.950392    21 net.cpp:137] Memory required for data: 119013760
[2018-04-23 20:40:57]  I0423 12:39:45.950434    21 layer_factory.hpp:77] Creating layer Convolution6
[2018-04-23 20:40:57]  I0423 12:39:45.950505    21 net.cpp:84] Creating Layer Convolution6
[2018-04-23 20:40:57]  I0423 12:39:45.950546    21 net.cpp:406] Convolution6 <- Eltwise2_ReLU5_0_split_0
[2018-04-23 20:40:57]  I0423 12:39:45.950618    21 net.cpp:380] Convolution6 -> Convolution6
[2018-04-23 20:40:57]  I0423 12:39:45.952725    21 net.cpp:122] Setting up Convolution6
[2018-04-23 20:40:57]  I0423 12:39:45.952790    21 net.cpp:129] Top shape: 32 32 32 32 (1048576)
[2018-04-23 20:40:58]  I0423 12:39:45.952824    21 net.cpp:137] Memory required for data: 123208064
[2018-04-23 20:40:58]  I0423 12:39:45.952888    21 layer_factory.hpp:77] Creating layer BatchNorm6
[2018-04-23 20:40:58]  I0423 12:39:45.952931    21 net.cpp:84] Creating Layer BatchNorm6
[2018-04-23 20:40:58]  I0423 12:39:45.952965    21 net.cpp:406] BatchNorm6 <- Convolution6
[2018-04-23 20:40:58]  I0423 12:39:45.953047    21 net.cpp:367] BatchNorm6 -> Convolution6 (in-place)
[2018-04-23 20:40:58]  I0423 12:39:45.953619    21 net.cpp:122] Setting up BatchNorm6
[2018-04-23 20:40:58]  I0423 12:39:45.953675    21 net.cpp:129] Top shape: 32 32 32 32 (1048576)
[2018-04-23 20:40:58]  I0423 12:39:45.953722    21 net.cpp:137] Memory required for data: 127402368
[2018-04-23 20:40:58]  I0423 12:39:45.953765    21 layer_factory.hpp:77] Creating layer Scale6
[2018-04-23 20:40:58]  I0423 12:39:45.953815    21 net.cpp:84] Creating Layer Scale6
[2018-04-23 20:40:58]  I0423 12:39:45.953862    21 net.cpp:406] Scale6 <- Convolution6
[2018-04-23 20:40:58]  I0423 12:39:45.953922    21 net.cpp:367] Scale6 -> Convolution6 (in-place)
[2018-04-23 20:40:58]  I0423 12:39:45.954059    21 layer_factory.hpp:77] Creating layer Scale6
[2018-04-23 20:40:58]  I0423 12:39:45.954365    21 net.cpp:122] Setting up Scale6
[2018-04-23 20:40:58]  I0423 12:39:45.954419    21 net.cpp:129] Top shape: 32 32 32 32 (1048576)
[2018-04-23 20:40:58]  I0423 12:39:45.954445    21 net.cpp:137] Memory required for data: 131596672
[2018-04-23 20:40:58]  I0423 12:39:45.954485    21 layer_factory.hpp:77] Creating layer ReLU6
[2018-04-23 20:40:58]  I0423 12:39:45.954550    21 net.cpp:84] Creating Layer ReLU6
[2018-04-23 20:40:58]  I0423 12:39:45.954586    21 net.cpp:406] ReLU6 <- Convolution6
[2018-04-23 20:40:58]  I0423 12:39:45.954628    21 net.cpp:367] ReLU6 -> Convolution6 (in-place)
[2018-04-23 20:40:58]  I0423 12:39:45.955230    21 net.cpp:122] Setting up ReLU6
[2018-04-23 20:40:58]  I0423 12:39:45.955294    21 net.cpp:129] Top shape: 32 32 32 32 (1048576)
[2018-04-23 20:40:58]  I0423 12:39:45.955323    21 net.cpp:137] Memory required for data: 135790976
[2018-04-23 20:40:58]  I0423 12:39:45.955359    21 layer_factory.hpp:77] Creating layer Convolution7
[2018-04-23 20:40:58]  I0423 12:39:45.955433    21 net.cpp:84] Creating Layer Convolution7
[2018-04-23 20:40:58]  I0423 12:39:45.955471    21 net.cpp:406] Convolution7 <- Convolution6
[2018-04-23 20:40:58]  I0423 12:39:45.955552    21 net.cpp:380] Convolution7 -> Convolution7
[2018-04-23 20:40:58]  I0423 12:39:45.957880    21 net.cpp:122] Setting up Convolution7
[2018-04-23 20:40:58]  I0423 12:39:45.957967    21 net.cpp:129] Top shape: 32 32 32 32 (1048576)
[2018-04-23 20:40:58]  I0423 12:39:45.958007    21 net.cpp:137] Memory required for data: 139985280
[2018-04-23 20:40:58]  I0423 12:39:45.958050    21 layer_factory.hpp:77] Creating layer BatchNorm7
[2018-04-23 20:40:58]  I0423 12:39:45.958132    21 net.cpp:84] Creating Layer BatchNorm7
[2018-04-23 20:40:58]  I0423 12:39:45.958184    21 net.cpp:406] BatchNorm7 <- Convolution7
[2018-04-23 20:40:58]  I0423 12:39:45.958241    21 net.cpp:367] BatchNorm7 -> Convolution7 (in-place)
[2018-04-23 20:40:58]  I0423 12:39:45.958734    21 net.cpp:122] Setting up BatchNorm7
[2018-04-23 20:40:58]  I0423 12:39:45.958791    21 net.cpp:129] Top shape: 32 32 32 32 (1048576)
[2018-04-23 20:40:58]  I0423 12:39:45.958828    21 net.cpp:137] Memory required for data: 144179584
[2018-04-23 20:40:58]  I0423 12:39:45.958866    21 layer_factory.hpp:77] Creating layer Scale7
[2018-04-23 20:40:58]  I0423 12:39:45.958905    21 net.cpp:84] Creating Layer Scale7
[2018-04-23 20:40:58]  I0423 12:39:45.958933    21 net.cpp:406] Scale7 <- Convolution7
[2018-04-23 20:40:58]  I0423 12:39:45.958972    21 net.cpp:367] Scale7 -> Convolution7 (in-place)
[2018-04-23 20:40:58]  I0423 12:39:45.959125    21 layer_factory.hpp:77] Creating layer Scale7
[2018-04-23 20:40:58]  I0423 12:39:45.959429    21 net.cpp:122] Setting up Scale7
[2018-04-23 20:40:58]  I0423 12:39:45.959482    21 net.cpp:129] Top shape: 32 32 32 32 (1048576)
[2018-04-23 20:40:58]  I0423 12:39:45.959520    21 net.cpp:137] Memory required for data: 148373888
[2018-04-23 20:40:58]  I0423 12:39:45.959555    21 layer_factory.hpp:77] Creating layer Eltwise3
[2018-04-23 20:40:58]  I0423 12:39:45.959615    21 net.cpp:84] Creating Layer Eltwise3
[2018-04-23 20:40:58]  I0423 12:39:45.959652    21 net.cpp:406] Eltwise3 <- Eltwise2_ReLU5_0_split_1
[2018-04-23 20:40:58]  I0423 12:39:45.959695    21 net.cpp:406] Eltwise3 <- Convolution7
[2018-04-23 20:40:58]  I0423 12:39:45.959755    21 net.cpp:380] Eltwise3 -> Eltwise3
[2018-04-23 20:40:58]  I0423 12:39:45.959870    21 net.cpp:122] Setting up Eltwise3
[2018-04-23 20:40:58]  I0423 12:39:45.959920    21 net.cpp:129] Top shape: 32 32 32 32 (1048576)
[2018-04-23 20:40:58]  I0423 12:39:45.959949    21 net.cpp:137] Memory required for data: 152568192
[2018-04-23 20:40:58]  I0423 12:39:45.959980    21 layer_factory.hpp:77] Creating layer ReLU7
[2018-04-23 20:40:58]  I0423 12:39:45.960194    21 net.cpp:84] Creating Layer ReLU7
[2018-04-23 20:40:58]  I0423 12:39:45.960243    21 net.cpp:406] ReLU7 <- Eltwise3
[2018-04-23 20:40:58]  I0423 12:39:45.960284    21 net.cpp:367] ReLU7 -> Eltwise3 (in-place)
[2018-04-23 20:40:58]  I0423 12:39:45.960711    21 net.cpp:122] Setting up ReLU7
[2018-04-23 20:40:58]  I0423 12:39:45.960769    21 net.cpp:129] Top shape: 32 32 32 32 (1048576)
[2018-04-23 20:40:58]  I0423 12:39:45.960808    21 net.cpp:137] Memory required for data: 156762496
[2018-04-23 20:40:58]  I0423 12:39:45.960842    21 layer_factory.hpp:77] Creating layer Eltwise3_ReLU7_0_split
[2018-04-23 20:40:58]  I0423 12:39:45.960889    21 net.cpp:84] Creating Layer Eltwise3_ReLU7_0_split
[2018-04-23 20:40:58]  I0423 12:39:45.960956    21 net.cpp:406] Eltwise3_ReLU7_0_split <- Eltwise3
[2018-04-23 20:40:58]  I0423 12:39:45.961006    21 net.cpp:380] Eltwise3_ReLU7_0_split -> Eltwise3_ReLU7_0_split_0
[2018-04-23 20:40:58]  I0423 12:39:45.961050    21 net.cpp:380] Eltwise3_ReLU7_0_split -> Eltwise3_ReLU7_0_split_1
[2018-04-23 20:40:58]  I0423 12:39:45.961215    21 net.cpp:122] Setting up Eltwise3_ReLU7_0_split
[2018-04-23 20:40:58]  I0423 12:39:45.961284    21 net.cpp:129] Top shape: 32 32 32 32 (1048576)
[2018-04-23 20:40:58]  I0423 12:39:45.961324    21 net.cpp:129] Top shape: 32 32 32 32 (1048576)
[2018-04-23 20:40:58]  I0423 12:39:45.961388    21 net.cpp:137] Memory required for data: 165151104
[2018-04-23 20:40:58]  I0423 12:39:45.961439    21 layer_factory.hpp:77] Creating layer Convolution8
[2018-04-23 20:40:58]  I0423 12:39:45.961486    21 net.cpp:84] Creating Layer Convolution8
[2018-04-23 20:40:58]  I0423 12:39:45.961534    21 net.cpp:406] Convolution8 <- Eltwise3_ReLU7_0_split_0
[2018-04-23 20:40:58]  I0423 12:39:45.961587    21 net.cpp:380] Convolution8 -> Convolution8
[2018-04-23 20:40:58]  I0423 12:39:45.963877    21 net.cpp:122] Setting up Convolution8
[2018-04-23 20:40:58]  I0423 12:39:45.963913    21 net.cpp:129] Top shape: 32 64 16 16 (524288)
[2018-04-23 20:40:58]  I0423 12:39:45.963918    21 net.cpp:137] Memory required for data: 167248256
[2018-04-23 20:40:58]  I0423 12:39:45.963932    21 layer_factory.hpp:77] Creating layer BatchNorm8
[2018-04-23 20:40:59]  I0423 12:39:45.963953    21 net.cpp:84] Creating Layer BatchNorm8
[2018-04-23 20:40:59]  I0423 12:39:45.963965    21 net.cpp:406] BatchNorm8 <- Convolution8
[2018-04-23 20:40:59]  I0423 12:39:45.963981    21 net.cpp:367] BatchNorm8 -> Convolution8 (in-place)
[2018-04-23 20:40:59]  I0423 12:39:45.964354    21 net.cpp:122] Setting up BatchNorm8
[2018-04-23 20:40:59]  I0423 12:39:45.964371    21 net.cpp:129] Top shape: 32 64 16 16 (524288)
[2018-04-23 20:40:59]  I0423 12:39:45.964376    21 net.cpp:137] Memory required for data: 169345408
[2018-04-23 20:40:59]  I0423 12:39:45.964385    21 layer_factory.hpp:77] Creating layer Scale8
[2018-04-23 20:40:59]  I0423 12:39:45.964395    21 net.cpp:84] Creating Layer Scale8
[2018-04-23 20:40:59]  I0423 12:39:45.964399    21 net.cpp:406] Scale8 <- Convolution8
[2018-04-23 20:40:59]  I0423 12:39:45.964406    21 net.cpp:367] Scale8 -> Convolution8 (in-place)
[2018-04-23 20:40:59]  I0423 12:39:45.964480    21 layer_factory.hpp:77] Creating layer Scale8
[2018-04-23 20:40:59]  I0423 12:39:45.964695    21 net.cpp:122] Setting up Scale8
[2018-04-23 20:40:59]  I0423 12:39:45.964712    21 net.cpp:129] Top shape: 32 64 16 16 (524288)
[2018-04-23 20:40:59]  I0423 12:39:45.964716    21 net.cpp:137] Memory required for data: 171442560
[2018-04-23 20:40:59]  I0423 12:39:45.964723    21 layer_factory.hpp:77] Creating layer Convolution9
[2018-04-23 20:40:59]  I0423 12:39:45.964743    21 net.cpp:84] Creating Layer Convolution9
[2018-04-23 20:40:59]  I0423 12:39:45.964751    21 net.cpp:406] Convolution9 <- Eltwise3_ReLU7_0_split_1
[2018-04-23 20:40:59]  I0423 12:39:45.964764    21 net.cpp:380] Convolution9 -> Convolution9
[2018-04-23 20:40:59]  I0423 12:39:45.966759    21 net.cpp:122] Setting up Convolution9
[2018-04-23 20:40:59]  I0423 12:39:45.966786    21 net.cpp:129] Top shape: 32 64 16 16 (524288)
[2018-04-23 20:40:59]  I0423 12:39:45.966791    21 net.cpp:137] Memory required for data: 173539712
[2018-04-23 20:40:59]  I0423 12:39:45.966800    21 layer_factory.hpp:77] Creating layer BatchNorm9
[2018-04-23 20:40:59]  I0423 12:39:45.966815    21 net.cpp:84] Creating Layer BatchNorm9
[2018-04-23 20:40:59]  I0423 12:39:45.966821    21 net.cpp:406] BatchNorm9 <- Convolution9
[2018-04-23 20:40:59]  I0423 12:39:45.966828    21 net.cpp:367] BatchNorm9 -> Convolution9 (in-place)
[2018-04-23 20:40:59]  I0423 12:39:45.967175    21 net.cpp:122] Setting up BatchNorm9
[2018-04-23 20:40:59]  I0423 12:39:45.967200    21 net.cpp:129] Top shape: 32 64 16 16 (524288)
[2018-04-23 20:40:59]  I0423 12:39:45.967203    21 net.cpp:137] Memory required for data: 175636864
[2018-04-23 20:40:59]  I0423 12:39:45.967212    21 layer_factory.hpp:77] Creating layer Scale9
[2018-04-23 20:40:59]  I0423 12:39:45.967222    21 net.cpp:84] Creating Layer Scale9
[2018-04-23 20:40:59]  I0423 12:39:45.967226    21 net.cpp:406] Scale9 <- Convolution9
[2018-04-23 20:40:59]  I0423 12:39:45.967233    21 net.cpp:367] Scale9 -> Convolution9 (in-place)
[2018-04-23 20:40:59]  I0423 12:39:45.967303    21 layer_factory.hpp:77] Creating layer Scale9
[2018-04-23 20:40:59]  I0423 12:39:45.967536    21 net.cpp:122] Setting up Scale9
[2018-04-23 20:40:59]  I0423 12:39:45.967555    21 net.cpp:129] Top shape: 32 64 16 16 (524288)
[2018-04-23 20:40:59]  I0423 12:39:45.967558    21 net.cpp:137] Memory required for data: 177734016
[2018-04-23 20:40:59]  I0423 12:39:45.967566    21 layer_factory.hpp:77] Creating layer ReLU8
[2018-04-23 20:40:59]  I0423 12:39:45.967581    21 net.cpp:84] Creating Layer ReLU8
[2018-04-23 20:40:59]  I0423 12:39:45.967586    21 net.cpp:406] ReLU8 <- Convolution9
[2018-04-23 20:40:59]  I0423 12:39:45.967592    21 net.cpp:367] ReLU8 -> Convolution9 (in-place)
[2018-04-23 20:40:59]  I0423 12:39:45.967947    21 net.cpp:122] Setting up ReLU8
[2018-04-23 20:40:59]  I0423 12:39:45.967967    21 net.cpp:129] Top shape: 32 64 16 16 (524288)
[2018-04-23 20:40:59]  I0423 12:39:45.967972    21 net.cpp:137] Memory required for data: 179831168
[2018-04-23 20:40:59]  I0423 12:39:45.967975    21 layer_factory.hpp:77] Creating layer Convolution10
[2018-04-23 20:40:59]  I0423 12:39:45.968000    21 net.cpp:84] Creating Layer Convolution10
[2018-04-23 20:40:59]  I0423 12:39:45.968005    21 net.cpp:406] Convolution10 <- Convolution9
[2018-04-23 20:40:59]  I0423 12:39:45.968014    21 net.cpp:380] Convolution10 -> Convolution10
[2018-04-23 20:40:59]  I0423 12:39:45.970407    21 net.cpp:122] Setting up Convolution10
[2018-04-23 20:40:59]  I0423 12:39:45.970433    21 net.cpp:129] Top shape: 32 64 16 16 (524288)
[2018-04-23 20:40:59]  I0423 12:39:45.970438    21 net.cpp:137] Memory required for data: 181928320
[2018-04-23 20:40:59]  I0423 12:39:45.970470    21 layer_factory.hpp:77] Creating layer BatchNorm10
[2018-04-23 20:40:59]  I0423 12:39:45.970487    21 net.cpp:84] Creating Layer BatchNorm10
[2018-04-23 20:40:59]  I0423 12:39:45.970500    21 net.cpp:406] BatchNorm10 <- Convolution10
[2018-04-23 20:40:59]  I0423 12:39:45.970508    21 net.cpp:367] BatchNorm10 -> Convolution10 (in-place)
[2018-04-23 20:40:59]  I0423 12:39:45.970949    21 net.cpp:122] Setting up BatchNorm10
[2018-04-23 20:40:59]  I0423 12:39:45.970973    21 net.cpp:129] Top shape: 32 64 16 16 (524288)
[2018-04-23 20:40:59]  I0423 12:39:45.970976    21 net.cpp:137] Memory required for data: 184025472
[2018-04-23 20:40:59]  I0423 12:39:45.970986    21 layer_factory.hpp:77] Creating layer Scale10
[2018-04-23 20:40:59]  I0423 12:39:45.971001    21 net.cpp:84] Creating Layer Scale10
[2018-04-23 20:40:59]  I0423 12:39:45.971007    21 net.cpp:406] Scale10 <- Convolution10
[2018-04-23 20:40:59]  I0423 12:39:45.971014    21 net.cpp:367] Scale10 -> Convolution10 (in-place)
[2018-04-23 20:40:59]  I0423 12:39:45.971228    21 layer_factory.hpp:77] Creating layer Scale10
[2018-04-23 20:40:59]  I0423 12:39:45.971544    21 net.cpp:122] Setting up Scale10
[2018-04-23 20:40:59]  I0423 12:39:45.971577    21 net.cpp:129] Top shape: 32 64 16 16 (524288)
[2018-04-23 20:40:59]  I0423 12:39:45.971593    21 net.cpp:137] Memory required for data: 186122624
[2018-04-23 20:40:59]  I0423 12:39:45.971601    21 layer_factory.hpp:77] Creating layer Eltwise4
[2018-04-23 20:40:59]  I0423 12:39:45.971700    21 net.cpp:84] Creating Layer Eltwise4
[2018-04-23 20:40:59]  I0423 12:39:45.971721    21 net.cpp:406] Eltwise4 <- Convolution8
[2018-04-23 20:40:59]  I0423 12:39:45.971729    21 net.cpp:406] Eltwise4 <- Convolution10
[2018-04-23 20:40:59]  I0423 12:39:45.971736    21 net.cpp:380] Eltwise4 -> Eltwise4
[2018-04-23 20:40:59]  I0423 12:39:45.971828    21 net.cpp:122] Setting up Eltwise4
[2018-04-23 20:40:59]  I0423 12:39:45.971849    21 net.cpp:129] Top shape: 32 64 16 16 (524288)
[2018-04-23 20:40:59]  I0423 12:39:45.971854    21 net.cpp:137] Memory required for data: 188219776
[2018-04-23 20:40:59]  I0423 12:39:45.971858    21 layer_factory.hpp:77] Creating layer ReLU9
[2018-04-23 20:40:59]  I0423 12:39:45.971866    21 net.cpp:84] Creating Layer ReLU9
[2018-04-23 20:40:59]  I0423 12:39:45.971954    21 net.cpp:406] ReLU9 <- Eltwise4
[2018-04-23 20:40:59]  I0423 12:39:45.971985    21 net.cpp:367] ReLU9 -> Eltwise4 (in-place)
[2018-04-23 20:40:59]  I0423 12:39:45.972647    21 net.cpp:122] Setting up ReLU9
[2018-04-23 20:40:59]  I0423 12:39:45.972672    21 net.cpp:129] Top shape: 32 64 16 16 (524288)
[2018-04-23 20:41:00]  I0423 12:39:45.972677    21 net.cpp:137] Memory required for data: 190316928
[2018-04-23 20:41:00]  I0423 12:39:45.972682    21 layer_factory.hpp:77] Creating layer Eltwise4_ReLU9_0_split
[2018-04-23 20:41:00]  I0423 12:39:45.972692    21 net.cpp:84] Creating Layer Eltwise4_ReLU9_0_split
[2018-04-23 20:41:00]  I0423 12:39:45.972697    21 net.cpp:406] Eltwise4_ReLU9_0_split <- Eltwise4
[2018-04-23 20:41:00]  I0423 12:39:45.972829    21 net.cpp:380] Eltwise4_ReLU9_0_split -> Eltwise4_ReLU9_0_split_0
[2018-04-23 20:41:00]  I0423 12:39:45.972856    21 net.cpp:380] Eltwise4_ReLU9_0_split -> Eltwise4_ReLU9_0_split_1
[2018-04-23 20:41:00]  I0423 12:39:45.973004    21 net.cpp:122] Setting up Eltwise4_ReLU9_0_split
[2018-04-23 20:41:00]  I0423 12:39:45.973024    21 net.cpp:129] Top shape: 32 64 16 16 (524288)
[2018-04-23 20:41:00]  I0423 12:39:45.973031    21 net.cpp:129] Top shape: 32 64 16 16 (524288)
[2018-04-23 20:41:00]  I0423 12:39:45.973034    21 net.cpp:137] Memory required for data: 194511232
[2018-04-23 20:41:00]  I0423 12:39:45.973039    21 layer_factory.hpp:77] Creating layer Convolution11
[2018-04-23 20:41:00]  I0423 12:39:45.973140    21 net.cpp:84] Creating Layer Convolution11
[2018-04-23 20:41:00]  I0423 12:39:45.973161    21 net.cpp:406] Convolution11 <- Eltwise4_ReLU9_0_split_0
[2018-04-23 20:41:00]  I0423 12:39:45.973184    21 net.cpp:380] Convolution11 -> Convolution11
[2018-04-23 20:41:00]  I0423 12:39:45.975301    21 net.cpp:122] Setting up Convolution11
[2018-04-23 20:41:00]  I0423 12:39:45.975330    21 net.cpp:129] Top shape: 32 64 16 16 (524288)
[2018-04-23 20:41:00]  I0423 12:39:45.975337    21 net.cpp:137] Memory required for data: 196608384
[2018-04-23 20:41:00]  I0423 12:39:45.975345    21 layer_factory.hpp:77] Creating layer BatchNorm11
[2018-04-23 20:41:00]  I0423 12:39:45.975354    21 net.cpp:84] Creating Layer BatchNorm11
[2018-04-23 20:41:00]  I0423 12:39:45.975360    21 net.cpp:406] BatchNorm11 <- Convolution11
[2018-04-23 20:41:00]  I0423 12:39:45.975482    21 net.cpp:367] BatchNorm11 -> Convolution11 (in-place)
[2018-04-23 20:41:00]  I0423 12:39:45.975956    21 net.cpp:122] Setting up BatchNorm11
[2018-04-23 20:41:00]  I0423 12:39:45.975977    21 net.cpp:129] Top shape: 32 64 16 16 (524288)
[2018-04-23 20:41:00]  I0423 12:39:45.975982    21 net.cpp:137] Memory required for data: 198705536
[2018-04-23 20:41:00]  I0423 12:39:45.975991    21 layer_factory.hpp:77] Creating layer Scale11
[2018-04-23 20:41:00]  I0423 12:39:45.975999    21 net.cpp:84] Creating Layer Scale11
[2018-04-23 20:41:00]  I0423 12:39:45.976004    21 net.cpp:406] Scale11 <- Convolution11
[2018-04-23 20:41:00]  I0423 12:39:45.976011    21 net.cpp:367] Scale11 -> Convolution11 (in-place)
[2018-04-23 20:41:00]  I0423 12:39:45.976089    21 layer_factory.hpp:77] Creating layer Scale11
[2018-04-23 20:41:00]  I0423 12:39:45.976450    21 net.cpp:122] Setting up Scale11
[2018-04-23 20:41:00]  I0423 12:39:45.976477    21 net.cpp:129] Top shape: 32 64 16 16 (524288)
[2018-04-23 20:41:00]  I0423 12:39:45.976482    21 net.cpp:137] Memory required for data: 200802688
[2018-04-23 20:41:00]  I0423 12:39:45.976490    21 layer_factory.hpp:77] Creating layer ReLU10
[2018-04-23 20:41:00]  I0423 12:39:45.976505    21 net.cpp:84] Creating Layer ReLU10
[2018-04-23 20:41:00]  I0423 12:39:45.976511    21 net.cpp:406] ReLU10 <- Convolution11
[2018-04-23 20:41:00]  I0423 12:39:45.976516    21 net.cpp:367] ReLU10 -> Convolution11 (in-place)
[2018-04-23 20:41:00]  I0423 12:39:45.976927    21 net.cpp:122] Setting up ReLU10
[2018-04-23 20:41:00]  I0423 12:39:45.976950    21 net.cpp:129] Top shape: 32 64 16 16 (524288)
[2018-04-23 20:41:00]  I0423 12:39:45.976954    21 net.cpp:137] Memory required for data: 202899840
[2018-04-23 20:41:00]  I0423 12:39:45.976959    21 layer_factory.hpp:77] Creating layer Convolution12
[2018-04-23 20:41:00]  I0423 12:39:45.976977    21 net.cpp:84] Creating Layer Convolution12
[2018-04-23 20:41:00]  I0423 12:39:45.976984    21 net.cpp:406] Convolution12 <- Convolution11
[2018-04-23 20:41:00]  I0423 12:39:45.976999    21 net.cpp:380] Convolution12 -> Convolution12
[2018-04-23 20:41:00]  I0423 12:39:45.979609    21 net.cpp:122] Setting up Convolution12
[2018-04-23 20:41:00]  I0423 12:39:45.979634    21 net.cpp:129] Top shape: 32 64 16 16 (524288)
[2018-04-23 20:41:00]  I0423 12:39:45.979640    21 net.cpp:137] Memory required for data: 204996992
[2018-04-23 20:41:00]  I0423 12:39:45.979647    21 layer_factory.hpp:77] Creating layer BatchNorm12
[2018-04-23 20:41:00]  I0423 12:39:45.979660    21 net.cpp:84] Creating Layer BatchNorm12
[2018-04-23 20:41:00]  I0423 12:39:45.979665    21 net.cpp:406] BatchNorm12 <- Convolution12
[2018-04-23 20:41:00]  I0423 12:39:45.979672    21 net.cpp:367] BatchNorm12 -> Convolution12 (in-place)
[2018-04-23 20:41:00]  I0423 12:39:45.980069    21 net.cpp:122] Setting up BatchNorm12
[2018-04-23 20:41:00]  I0423 12:39:45.980092    21 net.cpp:129] Top shape: 32 64 16 16 (524288)
[2018-04-23 20:41:00]  I0423 12:39:45.980095    21 net.cpp:137] Memory required for data: 207094144
[2018-04-23 20:41:00]  I0423 12:39:45.980105    21 layer_factory.hpp:77] Creating layer Scale12
[2018-04-23 20:41:00]  I0423 12:39:45.980132    21 net.cpp:84] Creating Layer Scale12
[2018-04-23 20:41:00]  I0423 12:39:45.980139    21 net.cpp:406] Scale12 <- Convolution12
[2018-04-23 20:41:00]  I0423 12:39:45.980248    21 net.cpp:367] Scale12 -> Convolution12 (in-place)
[2018-04-23 20:41:00]  I0423 12:39:45.980633    21 layer_factory.hpp:77] Creating layer Scale12
[2018-04-23 20:41:00]  I0423 12:39:45.980890    21 net.cpp:122] Setting up Scale12
[2018-04-23 20:41:00]  I0423 12:39:45.980912    21 net.cpp:129] Top shape: 32 64 16 16 (524288)
[2018-04-23 20:41:00]  I0423 12:39:45.980916    21 net.cpp:137] Memory required for data: 209191296
[2018-04-23 20:41:00]  I0423 12:39:45.980926    21 layer_factory.hpp:77] Creating layer Eltwise5
[2018-04-23 20:41:00]  I0423 12:39:45.980943    21 net.cpp:84] Creating Layer Eltwise5
[2018-04-23 20:41:00]  I0423 12:39:45.981039    21 net.cpp:406] Eltwise5 <- Eltwise4_ReLU9_0_split_1
[2018-04-23 20:41:00]  I0423 12:39:45.981058    21 net.cpp:406] Eltwise5 <- Convolution12
[2018-04-23 20:41:00]  I0423 12:39:45.981078    21 net.cpp:380] Eltwise5 -> Eltwise5
[2018-04-23 20:41:00]  I0423 12:39:45.981161    21 net.cpp:122] Setting up Eltwise5
[2018-04-23 20:41:00]  I0423 12:39:45.981181    21 net.cpp:129] Top shape: 32 64 16 16 (524288)
[2018-04-23 20:41:00]  I0423 12:39:45.981185    21 net.cpp:137] Memory required for data: 211288448
[2018-04-23 20:41:00]  I0423 12:39:45.981191    21 layer_factory.hpp:77] Creating layer ReLU11
[2018-04-23 20:41:00]  I0423 12:39:45.981199    21 net.cpp:84] Creating Layer ReLU11
[2018-04-23 20:41:00]  I0423 12:39:45.981284    21 net.cpp:406] ReLU11 <- Eltwise5
[2018-04-23 20:41:00]  I0423 12:39:45.981396    21 net.cpp:367] ReLU11 -> Eltwise5 (in-place)
[2018-04-23 20:41:01]  I0423 12:39:45.981961    21 net.cpp:122] Setting up ReLU11
[2018-04-23 20:41:01]  I0423 12:39:45.981983    21 net.cpp:129] Top shape: 32 64 16 16 (524288)
[2018-04-23 20:41:01]  I0423 12:39:45.981988    21 net.cpp:137] Memory required for data: 213385600
[2018-04-23 20:41:01]  I0423 12:39:45.981993    21 layer_factory.hpp:77] Creating layer Eltwise5_ReLU11_0_split
[2018-04-23 20:41:01]  I0423 12:39:45.982002    21 net.cpp:84] Creating Layer Eltwise5_ReLU11_0_split
[2018-04-23 20:41:01]  I0423 12:39:45.982007    21 net.cpp:406] Eltwise5_ReLU11_0_split <- Eltwise5
[2018-04-23 20:41:01]  I0423 12:39:45.982025    21 net.cpp:380] Eltwise5_ReLU11_0_split -> Eltwise5_ReLU11_0_split_0
[2018-04-23 20:41:01]  I0423 12:39:45.982043    21 net.cpp:380] Eltwise5_ReLU11_0_split -> Eltwise5_ReLU11_0_split_1
[2018-04-23 20:41:01]  I0423 12:39:45.982218    21 net.cpp:122] Setting up Eltwise5_ReLU11_0_split
[2018-04-23 20:41:01]  I0423 12:39:45.982239    21 net.cpp:129] Top shape: 32 64 16 16 (524288)
[2018-04-23 20:41:01]  I0423 12:39:45.982245    21 net.cpp:129] Top shape: 32 64 16 16 (524288)
[2018-04-23 20:41:01]  I0423 12:39:45.982249    21 net.cpp:137] Memory required for data: 217579904
[2018-04-23 20:41:01]  I0423 12:39:45.982254    21 layer_factory.hpp:77] Creating layer Convolution13
[2018-04-23 20:41:01]  I0423 12:39:45.982365    21 net.cpp:84] Creating Layer Convolution13
[2018-04-23 20:41:01]  I0423 12:39:45.982384    21 net.cpp:406] Convolution13 <- Eltwise5_ReLU11_0_split_0
[2018-04-23 20:41:01]  I0423 12:39:45.982401    21 net.cpp:380] Convolution13 -> Convolution13
[2018-04-23 20:41:01]  I0423 12:39:45.985424    21 net.cpp:122] Setting up Convolution13
[2018-04-23 20:41:01]  I0423 12:39:45.985481    21 net.cpp:129] Top shape: 32 64 16 16 (524288)
[2018-04-23 20:41:01]  I0423 12:39:45.985486    21 net.cpp:137] Memory required for data: 219677056
[2018-04-23 20:41:01]  I0423 12:39:45.985502    21 layer_factory.hpp:77] Creating layer BatchNorm13
[2018-04-23 20:41:01]  I0423 12:39:45.985512    21 net.cpp:84] Creating Layer BatchNorm13
[2018-04-23 20:41:01]  I0423 12:39:45.985517    21 net.cpp:406] BatchNorm13 <- Convolution13
[2018-04-23 20:41:01]  I0423 12:39:45.985571    21 net.cpp:367] BatchNorm13 -> Convolution13 (in-place)
[2018-04-23 20:41:01]  I0423 12:39:45.986136    21 net.cpp:122] Setting up BatchNorm13
[2018-04-23 20:41:01]  I0423 12:39:45.986161    21 net.cpp:129] Top shape: 32 64 16 16 (524288)
[2018-04-23 20:41:01]  I0423 12:39:45.986166    21 net.cpp:137] Memory required for data: 221774208
[2018-04-23 20:41:01]  I0423 12:39:45.986176    21 layer_factory.hpp:77] Creating layer Scale13
[2018-04-23 20:41:01]  I0423 12:39:45.986183    21 net.cpp:84] Creating Layer Scale13
[2018-04-23 20:41:01]  I0423 12:39:45.986189    21 net.cpp:406] Scale13 <- Convolution13
[2018-04-23 20:41:01]  I0423 12:39:45.986196    21 net.cpp:367] Scale13 -> Convolution13 (in-place)
[2018-04-23 20:41:01]  I0423 12:39:45.986269    21 layer_factory.hpp:77] Creating layer Scale13
[2018-04-23 20:41:01]  I0423 12:39:45.986454    21 net.cpp:122] Setting up Scale13
[2018-04-23 20:41:01]  I0423 12:39:45.986474    21 net.cpp:129] Top shape: 32 64 16 16 (524288)
[2018-04-23 20:41:01]  I0423 12:39:45.986479    21 net.cpp:137] Memory required for data: 223871360
[2018-04-23 20:41:01]  I0423 12:39:45.986486    21 layer_factory.hpp:77] Creating layer ReLU12
[2018-04-23 20:41:01]  I0423 12:39:45.986500    21 net.cpp:84] Creating Layer ReLU12
[2018-04-23 20:41:01]  I0423 12:39:45.986510    21 net.cpp:406] ReLU12 <- Convolution13
[2018-04-23 20:41:01]  I0423 12:39:45.986515    21 net.cpp:367] ReLU12 -> Convolution13 (in-place)
[2018-04-23 20:41:01]  I0423 12:39:45.986958    21 net.cpp:122] Setting up ReLU12
[2018-04-23 20:41:01]  I0423 12:39:45.986989    21 net.cpp:129] Top shape: 32 64 16 16 (524288)
[2018-04-23 20:41:01]  I0423 12:39:45.986994    21 net.cpp:137] Memory required for data: 225968512
[2018-04-23 20:41:01]  I0423 12:39:45.986999    21 layer_factory.hpp:77] Creating layer Convolution14
[2018-04-23 20:41:01]  I0423 12:39:45.987045    21 net.cpp:84] Creating Layer Convolution14
[2018-04-23 20:41:01]  I0423 12:39:45.987051    21 net.cpp:406] Convolution14 <- Convolution13
[2018-04-23 20:41:01]  I0423 12:39:45.987061    21 net.cpp:380] Convolution14 -> Convolution14
[2018-04-23 20:41:01]  I0423 12:39:45.989205    21 net.cpp:122] Setting up Convolution14
[2018-04-23 20:41:01]  I0423 12:39:45.989230    21 net.cpp:129] Top shape: 32 64 16 16 (524288)
[2018-04-23 20:41:01]  I0423 12:39:45.989235    21 net.cpp:137] Memory required for data: 228065664
[2018-04-23 20:41:01]  I0423 12:39:45.989245    21 layer_factory.hpp:77] Creating layer BatchNorm14
[2018-04-23 20:41:01]  I0423 12:39:45.989267    21 net.cpp:84] Creating Layer BatchNorm14
[2018-04-23 20:41:01]  I0423 12:39:45.989274    21 net.cpp:406] BatchNorm14 <- Convolution14
[2018-04-23 20:41:01]  I0423 12:39:45.989286    21 net.cpp:367] BatchNorm14 -> Convolution14 (in-place)
[2018-04-23 20:41:01]  I0423 12:39:45.989742    21 net.cpp:122] Setting up BatchNorm14
[2018-04-23 20:41:01]  I0423 12:39:45.989764    21 net.cpp:129] Top shape: 32 64 16 16 (524288)
[2018-04-23 20:41:01]  I0423 12:39:45.989768    21 net.cpp:137] Memory required for data: 230162816
[2018-04-23 20:41:01]  I0423 12:39:45.989778    21 layer_factory.hpp:77] Creating layer Scale14
[2018-04-23 20:41:01]  I0423 12:39:45.989800    21 net.cpp:84] Creating Layer Scale14
[2018-04-23 20:41:02]  I0423 12:39:45.989806    21 net.cpp:406] Scale14 <- Convolution14
[2018-04-23 20:41:02]  I0423 12:39:45.989812    21 net.cpp:367] Scale14 -> Convolution14 (in-place)
[2018-04-23 20:41:02]  I0423 12:39:45.990015    21 layer_factory.hpp:77] Creating layer Scale14
[2018-04-23 20:41:02]  I0423 12:39:45.990320    21 net.cpp:122] Setting up Scale14
[2018-04-23 20:41:02]  I0423 12:39:45.990341    21 net.cpp:129] Top shape: 32 64 16 16 (524288)
[2018-04-23 20:41:02]  I0423 12:39:45.990345    21 net.cpp:137] Memory required for data: 232259968
[2018-04-23 20:41:02]  I0423 12:39:45.990353    21 layer_factory.hpp:77] Creating layer Eltwise6
[2018-04-23 20:41:02]  I0423 12:39:45.990468    21 net.cpp:84] Creating Layer Eltwise6
[2018-04-23 20:41:02]  I0423 12:39:45.990487    21 net.cpp:406] Eltwise6 <- Eltwise5_ReLU11_0_split_1
[2018-04-23 20:41:02]  I0423 12:39:45.990502    21 net.cpp:406] Eltwise6 <- Convolution14
[2018-04-23 20:41:02]  I0423 12:39:45.990510    21 net.cpp:380] Eltwise6 -> Eltwise6
[2018-04-23 20:41:02]  I0423 12:39:45.990593    21 net.cpp:122] Setting up Eltwise6
[2018-04-23 20:41:02]  I0423 12:39:45.990633    21 net.cpp:129] Top shape: 32 64 16 16 (524288)
[2018-04-23 20:41:02]  I0423 12:39:45.990646    21 net.cpp:137] Memory required for data: 234357120
[2018-04-23 20:41:02]  I0423 12:39:45.990651    21 layer_factory.hpp:77] Creating layer ReLU13
[2018-04-23 20:41:02]  I0423 12:39:45.990659    21 net.cpp:84] Creating Layer ReLU13
[2018-04-23 20:41:02]  I0423 12:39:45.990664    21 net.cpp:406] ReLU13 <- Eltwise6
[2018-04-23 20:41:02]  I0423 12:39:45.990758    21 net.cpp:367] ReLU13 -> Eltwise6 (in-place)
[2018-04-23 20:41:02]  I0423 12:39:45.991300    21 net.cpp:122] Setting up ReLU13
[2018-04-23 20:41:02]  I0423 12:39:45.991328    21 net.cpp:129] Top shape: 32 64 16 16 (524288)
[2018-04-23 20:41:02]  I0423 12:39:45.991333    21 net.cpp:137] Memory required for data: 236454272
[2018-04-23 20:41:02]  I0423 12:39:45.991338    21 layer_factory.hpp:77] Creating layer Eltwise6_ReLU13_0_split
[2018-04-23 20:41:02]  I0423 12:39:45.991358    21 net.cpp:84] Creating Layer Eltwise6_ReLU13_0_split
[2018-04-23 20:41:02]  I0423 12:39:45.991466    21 net.cpp:406] Eltwise6_ReLU13_0_split <- Eltwise6
[2018-04-23 20:41:02]  I0423 12:39:45.991478    21 net.cpp:380] Eltwise6_ReLU13_0_split -> Eltwise6_ReLU13_0_split_0
[2018-04-23 20:41:02]  I0423 12:39:45.991554    21 net.cpp:380] Eltwise6_ReLU13_0_split -> Eltwise6_ReLU13_0_split_1
[2018-04-23 20:41:02]  I0423 12:39:45.991751    21 net.cpp:122] Setting up Eltwise6_ReLU13_0_split
[2018-04-23 20:41:02]  I0423 12:39:45.991837    21 net.cpp:129] Top shape: 32 64 16 16 (524288)
[2018-04-23 20:41:02]  I0423 12:39:45.991843    21 net.cpp:129] Top shape: 32 64 16 16 (524288)
[2018-04-23 20:41:02]  I0423 12:39:45.991847    21 net.cpp:137] Memory required for data: 240648576
[2018-04-23 20:41:02]  I0423 12:39:45.991852    21 layer_factory.hpp:77] Creating layer Convolution15
[2018-04-23 20:41:02]  I0423 12:39:45.991873    21 net.cpp:84] Creating Layer Convolution15
[2018-04-23 20:41:02]  I0423 12:39:45.991885    21 net.cpp:406] Convolution15 <- Eltwise6_ReLU13_0_split_0
[2018-04-23 20:41:02]  I0423 12:39:45.991895    21 net.cpp:380] Convolution15 -> Convolution15
[2018-04-23 20:41:02]  I0423 12:39:45.994019    21 net.cpp:122] Setting up Convolution15
[2018-04-23 20:41:02]  I0423 12:39:45.994045    21 net.cpp:129] Top shape: 32 128 8 8 (262144)
[2018-04-23 20:41:02]  I0423 12:39:45.994050    21 net.cpp:137] Memory required for data: 241697152
[2018-04-23 20:41:02]  I0423 12:39:45.994060    21 layer_factory.hpp:77] Creating layer BatchNorm15
[2018-04-23 20:41:02]  I0423 12:39:45.994117    21 net.cpp:84] Creating Layer BatchNorm15
[2018-04-23 20:41:02]  I0423 12:39:45.994124    21 net.cpp:406] BatchNorm15 <- Convolution15
[2018-04-23 20:41:02]  I0423 12:39:45.994132    21 net.cpp:367] BatchNorm15 -> Convolution15 (in-place)
[2018-04-23 20:41:02]  I0423 12:39:45.994760    21 net.cpp:122] Setting up BatchNorm15
[2018-04-23 20:41:02]  I0423 12:39:45.994777    21 net.cpp:129] Top shape: 32 128 8 8 (262144)
[2018-04-23 20:41:02]  I0423 12:39:45.994781    21 net.cpp:137] Memory required for data: 242745728
[2018-04-23 20:41:02]  I0423 12:39:45.994791    21 layer_factory.hpp:77] Creating layer Scale15
[2018-04-23 20:41:02]  I0423 12:39:45.994798    21 net.cpp:84] Creating Layer Scale15
[2018-04-23 20:41:02]  I0423 12:39:45.994802    21 net.cpp:406] Scale15 <- Convolution15
[2018-04-23 20:41:02]  I0423 12:39:45.994809    21 net.cpp:367] Scale15 -> Convolution15 (in-place)
[2018-04-23 20:41:02]  I0423 12:39:45.994978    21 layer_factory.hpp:77] Creating layer Scale15
[2018-04-23 20:41:02]  I0423 12:39:45.995297    21 net.cpp:122] Setting up Scale15
[2018-04-23 20:41:02]  I0423 12:39:45.995314    21 net.cpp:129] Top shape: 32 128 8 8 (262144)
[2018-04-23 20:41:02]  I0423 12:39:45.995319    21 net.cpp:137] Memory required for data: 243794304
[2018-04-23 20:41:02]  I0423 12:39:45.995326    21 layer_factory.hpp:77] Creating layer Convolution16
[2018-04-23 20:41:02]  I0423 12:39:45.995350    21 net.cpp:84] Creating Layer Convolution16
[2018-04-23 20:41:02]  I0423 12:39:45.995362    21 net.cpp:406] Convolution16 <- Eltwise6_ReLU13_0_split_1
[2018-04-23 20:41:02]  I0423 12:39:45.995370    21 net.cpp:380] Convolution16 -> Convolution16
[2018-04-23 20:41:02]  I0423 12:39:45.997809    21 net.cpp:122] Setting up Convolution16
[2018-04-23 20:41:02]  I0423 12:39:45.997835    21 net.cpp:129] Top shape: 32 128 8 8 (262144)
[2018-04-23 20:41:02]  I0423 12:39:45.997840    21 net.cpp:137] Memory required for data: 244842880
[2018-04-23 20:41:02]  I0423 12:39:45.997849    21 layer_factory.hpp:77] Creating layer BatchNorm16
[2018-04-23 20:41:02]  I0423 12:39:45.997862    21 net.cpp:84] Creating Layer BatchNorm16
[2018-04-23 20:41:02]  I0423 12:39:45.997867    21 net.cpp:406] BatchNorm16 <- Convolution16
[2018-04-23 20:41:02]  I0423 12:39:45.997884    21 net.cpp:367] BatchNorm16 -> Convolution16 (in-place)
[2018-04-23 20:41:03]  I0423 12:39:45.998248    21 net.cpp:122] Setting up BatchNorm16
[2018-04-23 20:41:03]  I0423 12:39:45.998266    21 net.cpp:129] Top shape: 32 128 8 8 (262144)
[2018-04-23 20:41:03]  I0423 12:39:45.998270    21 net.cpp:137] Memory required for data: 245891456
[2018-04-23 20:41:03]  I0423 12:39:45.998280    21 layer_factory.hpp:77] Creating layer Scale16
[2018-04-23 20:41:03]  I0423 12:39:45.998296    21 net.cpp:84] Creating Layer Scale16
[2018-04-23 20:41:03]  I0423 12:39:45.998301    21 net.cpp:406] Scale16 <- Convolution16
[2018-04-23 20:41:03]  I0423 12:39:45.998306    21 net.cpp:367] Scale16 -> Convolution16 (in-place)
[2018-04-23 20:41:03]  I0423 12:39:45.998422    21 layer_factory.hpp:77] Creating layer Scale16
[2018-04-23 20:41:03]  I0423 12:39:45.998661    21 net.cpp:122] Setting up Scale16
[2018-04-23 20:41:03]  I0423 12:39:45.998677    21 net.cpp:129] Top shape: 32 128 8 8 (262144)
[2018-04-23 20:41:03]  I0423 12:39:45.998682    21 net.cpp:137] Memory required for data: 246940032
[2018-04-23 20:41:03]  I0423 12:39:45.998689    21 layer_factory.hpp:77] Creating layer ReLU14
[2018-04-23 20:41:03]  I0423 12:39:45.998697    21 net.cpp:84] Creating Layer ReLU14
[2018-04-23 20:41:03]  I0423 12:39:45.998702    21 net.cpp:406] ReLU14 <- Convolution16
[2018-04-23 20:41:03]  I0423 12:39:45.998714    21 net.cpp:367] ReLU14 -> Convolution16 (in-place)
[2018-04-23 20:41:03]  I0423 12:39:45.999053    21 net.cpp:122] Setting up ReLU14
[2018-04-23 20:41:03]  I0423 12:39:45.999073    21 net.cpp:129] Top shape: 32 128 8 8 (262144)
[2018-04-23 20:41:03]  I0423 12:39:45.999078    21 net.cpp:137] Memory required for data: 247988608
[2018-04-23 20:41:03]  I0423 12:39:45.999083    21 layer_factory.hpp:77] Creating layer Convolution17
[2018-04-23 20:41:03]  I0423 12:39:45.999096    21 net.cpp:84] Creating Layer Convolution17
[2018-04-23 20:41:03]  I0423 12:39:45.999104    21 net.cpp:406] Convolution17 <- Convolution16
[2018-04-23 20:41:03]  I0423 12:39:45.999114    21 net.cpp:380] Convolution17 -> Convolution17
[2018-04-23 20:41:03]  I0423 12:39:46.002755    21 net.cpp:122] Setting up Convolution17
[2018-04-23 20:41:03]  I0423 12:39:46.002789    21 net.cpp:129] Top shape: 32 128 8 8 (262144)
[2018-04-23 20:41:03]  I0423 12:39:46.002794    21 net.cpp:137] Memory required for data: 249037184
[2018-04-23 20:41:03]  I0423 12:39:46.002804    21 layer_factory.hpp:77] Creating layer BatchNorm17
[2018-04-23 20:41:03]  I0423 12:39:46.002812    21 net.cpp:84] Creating Layer BatchNorm17
[2018-04-23 20:41:03]  I0423 12:39:46.002825    21 net.cpp:406] BatchNorm17 <- Convolution17
[2018-04-23 20:41:03]  I0423 12:39:46.002832    21 net.cpp:367] BatchNorm17 -> Convolution17 (in-place)
[2018-04-23 20:41:03]  I0423 12:39:46.003378    21 net.cpp:122] Setting up BatchNorm17
[2018-04-23 20:41:03]  I0423 12:39:46.003402    21 net.cpp:129] Top shape: 32 128 8 8 (262144)
[2018-04-23 20:41:03]  I0423 12:39:46.003407    21 net.cpp:137] Memory required for data: 250085760
[2018-04-23 20:41:03]  I0423 12:39:46.003417    21 layer_factory.hpp:77] Creating layer Scale17
[2018-04-23 20:41:03]  I0423 12:39:46.003432    21 net.cpp:84] Creating Layer Scale17
[2018-04-23 20:41:03]  I0423 12:39:46.003438    21 net.cpp:406] Scale17 <- Convolution17
[2018-04-23 20:41:03]  I0423 12:39:46.003445    21 net.cpp:367] Scale17 -> Convolution17 (in-place)
[2018-04-23 20:41:03]  I0423 12:39:46.003535    21 layer_factory.hpp:77] Creating layer Scale17
[2018-04-23 20:41:03]  I0423 12:39:46.004221    21 net.cpp:122] Setting up Scale17
[2018-04-23 20:41:03]  I0423 12:39:46.004242    21 net.cpp:129] Top shape: 32 128 8 8 (262144)
[2018-04-23 20:41:03]  I0423 12:39:46.004246    21 net.cpp:137] Memory required for data: 251134336
[2018-04-23 20:41:03]  I0423 12:39:46.004256    21 layer_factory.hpp:77] Creating layer Eltwise7
[2018-04-23 20:41:03]  I0423 12:39:46.004325    21 net.cpp:84] Creating Layer Eltwise7
[2018-04-23 20:41:03]  I0423 12:39:46.004333    21 net.cpp:406] Eltwise7 <- Convolution15
[2018-04-23 20:41:03]  I0423 12:39:46.004338    21 net.cpp:406] Eltwise7 <- Convolution17
[2018-04-23 20:41:03]  I0423 12:39:46.004345    21 net.cpp:380] Eltwise7 -> Eltwise7
[2018-04-23 20:41:03]  I0423 12:39:46.004433    21 net.cpp:122] Setting up Eltwise7
[2018-04-23 20:41:03]  I0423 12:39:46.004443    21 net.cpp:129] Top shape: 32 128 8 8 (262144)
[2018-04-23 20:41:03]  I0423 12:39:46.004447    21 net.cpp:137] Memory required for data: 252182912
[2018-04-23 20:41:03]  I0423 12:39:46.004452    21 layer_factory.hpp:77] Creating layer ReLU15
[2018-04-23 20:41:03]  I0423 12:39:46.004459    21 net.cpp:84] Creating Layer ReLU15
[2018-04-23 20:41:03]  I0423 12:39:46.004465    21 net.cpp:406] ReLU15 <- Eltwise7
[2018-04-23 20:41:03]  I0423 12:39:46.004478    21 net.cpp:367] ReLU15 -> Eltwise7 (in-place)
[2018-04-23 20:41:04]  I0423 12:39:46.004964    21 net.cpp:122] Setting up ReLU15
[2018-04-23 20:41:04]  I0423 12:39:46.004987    21 net.cpp:129] Top shape: 32 128 8 8 (262144)
[2018-04-23 20:41:04]  I0423 12:39:46.004992    21 net.cpp:137] Memory required for data: 253231488
[2018-04-23 20:41:04]  I0423 12:39:46.004997    21 layer_factory.hpp:77] Creating layer Eltwise7_ReLU15_0_split
[2018-04-23 20:41:04]  I0423 12:39:46.005007    21 net.cpp:84] Creating Layer Eltwise7_ReLU15_0_split
[2018-04-23 20:41:04]  I0423 12:39:46.005012    21 net.cpp:406] Eltwise7_ReLU15_0_split <- Eltwise7
[2018-04-23 20:41:04]  I0423 12:39:46.005025    21 net.cpp:380] Eltwise7_ReLU15_0_split -> Eltwise7_ReLU15_0_split_0
[2018-04-23 20:41:04]  I0423 12:39:46.005035    21 net.cpp:380] Eltwise7_ReLU15_0_split -> Eltwise7_ReLU15_0_split_1
[2018-04-23 20:41:04]  I0423 12:39:46.005365    21 net.cpp:122] Setting up Eltwise7_ReLU15_0_split
[2018-04-23 20:41:04]  I0423 12:39:46.005389    21 net.cpp:129] Top shape: 32 128 8 8 (262144)
[2018-04-23 20:41:04]  I0423 12:39:46.005406    21 net.cpp:129] Top shape: 32 128 8 8 (262144)
[2018-04-23 20:41:04]  I0423 12:39:46.005409    21 net.cpp:137] Memory required for data: 255328640
[2018-04-23 20:41:04]  I0423 12:39:46.005415    21 layer_factory.hpp:77] Creating layer Convolution18
[2018-04-23 20:41:04]  I0423 12:39:46.005522    21 net.cpp:84] Creating Layer Convolution18
[2018-04-23 20:41:04]  I0423 12:39:46.005561    21 net.cpp:406] Convolution18 <- Eltwise7_ReLU15_0_split_0
[2018-04-23 20:41:04]  I0423 12:39:46.005575    21 net.cpp:380] Convolution18 -> Convolution18
[2018-04-23 20:41:04]  I0423 12:39:46.009308    21 net.cpp:122] Setting up Convolution18
[2018-04-23 20:41:04]  I0423 12:39:46.009376    21 net.cpp:129] Top shape: 32 128 8 8 (262144)
[2018-04-23 20:41:04]  I0423 12:39:46.009385    21 net.cpp:137] Memory required for data: 256377216
[2018-04-23 20:41:04]  I0423 12:39:46.009397    21 layer_factory.hpp:77] Creating layer BatchNorm18
[2018-04-23 20:41:04]  I0423 12:39:46.009407    21 net.cpp:84] Creating Layer BatchNorm18
[2018-04-23 20:41:04]  I0423 12:39:46.009413    21 net.cpp:406] BatchNorm18 <- Convolution18
[2018-04-23 20:41:04]  I0423 12:39:46.009428    21 net.cpp:367] BatchNorm18 -> Convolution18 (in-place)
[2018-04-23 20:41:04]  I0423 12:39:46.009924    21 net.cpp:122] Setting up BatchNorm18
[2018-04-23 20:41:04]  I0423 12:39:46.009948    21 net.cpp:129] Top shape: 32 128 8 8 (262144)
[2018-04-23 20:41:04]  I0423 12:39:46.009953    21 net.cpp:137] Memory required for data: 257425792
[2018-04-23 20:41:04]  I0423 12:39:46.009963    21 layer_factory.hpp:77] Creating layer Scale18
[2018-04-23 20:41:04]  I0423 12:39:46.009971    21 net.cpp:84] Creating Layer Scale18
[2018-04-23 20:41:04]  I0423 12:39:46.009979    21 net.cpp:406] Scale18 <- Convolution18
[2018-04-23 20:41:04]  I0423 12:39:46.009984    21 net.cpp:367] Scale18 -> Convolution18 (in-place)
[2018-04-23 20:41:04]  I0423 12:39:46.010069    21 layer_factory.hpp:77] Creating layer Scale18
[2018-04-23 20:41:04]  I0423 12:39:46.010452    21 net.cpp:122] Setting up Scale18
[2018-04-23 20:41:04]  I0423 12:39:46.010473    21 net.cpp:129] Top shape: 32 128 8 8 (262144)
[2018-04-23 20:41:04]  I0423 12:39:46.010478    21 net.cpp:137] Memory required for data: 258474368
[2018-04-23 20:41:04]  I0423 12:39:46.010485    21 layer_factory.hpp:77] Creating layer ReLU16
[2018-04-23 20:41:04]  I0423 12:39:46.010502    21 net.cpp:84] Creating Layer ReLU16
[2018-04-23 20:41:04]  I0423 12:39:46.010509    21 net.cpp:406] ReLU16 <- Convolution18
[2018-04-23 20:41:04]  I0423 12:39:46.010524    21 net.cpp:367] ReLU16 -> Convolution18 (in-place)
[2018-04-23 20:41:04]  I0423 12:39:46.011129    21 net.cpp:122] Setting up ReLU16
[2018-04-23 20:41:04]  I0423 12:39:46.011154    21 net.cpp:129] Top shape: 32 128 8 8 (262144)
[2018-04-23 20:41:04]  I0423 12:39:46.011159    21 net.cpp:137] Memory required for data: 259522944
[2018-04-23 20:41:04]  I0423 12:39:46.011164    21 layer_factory.hpp:77] Creating layer Convolution19
[2018-04-23 20:41:04]  I0423 12:39:46.011185    21 net.cpp:84] Creating Layer Convolution19
[2018-04-23 20:41:04]  I0423 12:39:46.011191    21 net.cpp:406] Convolution19 <- Convolution18
[2018-04-23 20:41:04]  I0423 12:39:46.011206    21 net.cpp:380] Convolution19 -> Convolution19
[2018-04-23 20:41:04]  I0423 12:39:46.017405    21 net.cpp:122] Setting up Convolution19
[2018-04-23 20:41:04]  I0423 12:39:46.017432    21 net.cpp:129] Top shape: 32 128 8 8 (262144)
[2018-04-23 20:41:04]  I0423 12:39:46.017437    21 net.cpp:137] Memory required for data: 260571520
[2018-04-23 20:41:04]  I0423 12:39:46.017447    21 layer_factory.hpp:77] Creating layer BatchNorm19
[2018-04-23 20:41:04]  I0423 12:39:46.017464    21 net.cpp:84] Creating Layer BatchNorm19
[2018-04-23 20:41:04]  I0423 12:39:46.017470    21 net.cpp:406] BatchNorm19 <- Convolution19
[2018-04-23 20:41:04]  I0423 12:39:46.017477    21 net.cpp:367] BatchNorm19 -> Convolution19 (in-place)
[2018-04-23 20:41:04]  I0423 12:39:46.017930    21 net.cpp:122] Setting up BatchNorm19
[2018-04-23 20:41:04]  I0423 12:39:46.017951    21 net.cpp:129] Top shape: 32 128 8 8 (262144)
[2018-04-23 20:41:04]  I0423 12:39:46.017956    21 net.cpp:137] Memory required for data: 261620096
[2018-04-23 20:41:04]  I0423 12:39:46.018002    21 layer_factory.hpp:77] Creating layer Scale19
[2018-04-23 20:41:04]  I0423 12:39:46.018012    21 net.cpp:84] Creating Layer Scale19
[2018-04-23 20:41:04]  I0423 12:39:46.018016    21 net.cpp:406] Scale19 <- Convolution19
[2018-04-23 20:41:04]  I0423 12:39:46.018138    21 net.cpp:367] Scale19 -> Convolution19 (in-place)
[2018-04-23 20:41:04]  I0423 12:39:46.018319    21 layer_factory.hpp:77] Creating layer Scale19
[2018-04-23 20:41:04]  I0423 12:39:46.018630    21 net.cpp:122] Setting up Scale19
[2018-04-23 20:41:05]  I0423 12:39:46.018651    21 net.cpp:129] Top shape: 32 128 8 8 (262144)
[2018-04-23 20:41:05]  I0423 12:39:46.018656    21 net.cpp:137] Memory required for data: 262668672
[2018-04-23 20:41:05]  I0423 12:39:46.018664    21 layer_factory.hpp:77] Creating layer Eltwise8
[2018-04-23 20:41:05]  I0423 12:39:46.018770    21 net.cpp:84] Creating Layer Eltwise8
[2018-04-23 20:41:05]  I0423 12:39:46.018780    21 net.cpp:406] Eltwise8 <- Eltwise7_ReLU15_0_split_1
[2018-04-23 20:41:05]  I0423 12:39:46.018788    21 net.cpp:406] Eltwise8 <- Convolution19
[2018-04-23 20:41:05]  I0423 12:39:46.018795    21 net.cpp:380] Eltwise8 -> Eltwise8
[2018-04-23 20:41:05]  I0423 12:39:46.018894    21 net.cpp:122] Setting up Eltwise8
[2018-04-23 20:41:05]  I0423 12:39:46.018915    21 net.cpp:129] Top shape: 32 128 8 8 (262144)
[2018-04-23 20:41:05]  I0423 12:39:46.018919    21 net.cpp:137] Memory required for data: 263717248
[2018-04-23 20:41:05]  I0423 12:39:46.018923    21 layer_factory.hpp:77] Creating layer ReLU17
[2018-04-23 20:41:05]  I0423 12:39:46.019011    21 net.cpp:84] Creating Layer ReLU17
[2018-04-23 20:41:05]  I0423 12:39:46.019028    21 net.cpp:406] ReLU17 <- Eltwise8
[2018-04-23 20:41:05]  I0423 12:39:46.019047    21 net.cpp:367] ReLU17 -> Eltwise8 (in-place)
[2018-04-23 20:41:05]  I0423 12:39:46.019445    21 net.cpp:122] Setting up ReLU17
[2018-04-23 20:41:05]  I0423 12:39:46.019467    21 net.cpp:129] Top shape: 32 128 8 8 (262144)
[2018-04-23 20:41:05]  I0423 12:39:46.019472    21 net.cpp:137] Memory required for data: 264765824
[2018-04-23 20:41:05]  I0423 12:39:46.019476    21 layer_factory.hpp:77] Creating layer Eltwise8_ReLU17_0_split
[2018-04-23 20:41:05]  I0423 12:39:46.019582    21 net.cpp:84] Creating Layer Eltwise8_ReLU17_0_split
[2018-04-23 20:41:05]  I0423 12:39:46.019600    21 net.cpp:406] Eltwise8_ReLU17_0_split <- Eltwise8
[2018-04-23 20:41:05]  I0423 12:39:46.019620    21 net.cpp:380] Eltwise8_ReLU17_0_split -> Eltwise8_ReLU17_0_split_0
[2018-04-23 20:41:05]  I0423 12:39:46.019631    21 net.cpp:380] Eltwise8_ReLU17_0_split -> Eltwise8_ReLU17_0_split_1
[2018-04-23 20:41:05]  I0423 12:39:46.019774    21 net.cpp:122] Setting up Eltwise8_ReLU17_0_split
[2018-04-23 20:41:05]  I0423 12:39:46.019795    21 net.cpp:129] Top shape: 32 128 8 8 (262144)
[2018-04-23 20:41:05]  I0423 12:39:46.019801    21 net.cpp:129] Top shape: 32 128 8 8 (262144)
[2018-04-23 20:41:05]  I0423 12:39:46.019804    21 net.cpp:137] Memory required for data: 266862976
[2018-04-23 20:41:05]  I0423 12:39:46.019809    21 layer_factory.hpp:77] Creating layer Convolution20
[2018-04-23 20:41:05]  I0423 12:39:46.019922    21 net.cpp:84] Creating Layer Convolution20
[2018-04-23 20:41:05]  I0423 12:39:46.019935    21 net.cpp:406] Convolution20 <- Eltwise8_ReLU17_0_split_0
[2018-04-23 20:41:05]  I0423 12:39:46.019973    21 net.cpp:380] Convolution20 -> Convolution20
[2018-04-23 20:41:05]  I0423 12:39:46.023196    21 net.cpp:122] Setting up Convolution20
[2018-04-23 20:41:05]  I0423 12:39:46.023231    21 net.cpp:129] Top shape: 32 128 8 8 (262144)
[2018-04-23 20:41:05]  I0423 12:39:46.023236    21 net.cpp:137] Memory required for data: 267911552
[2018-04-23 20:41:05]  I0423 12:39:46.023247    21 layer_factory.hpp:77] Creating layer BatchNorm20
[2018-04-23 20:41:05]  I0423 12:39:46.023257    21 net.cpp:84] Creating Layer BatchNorm20
[2018-04-23 20:41:05]  I0423 12:39:46.023262    21 net.cpp:406] BatchNorm20 <- Convolution20
[2018-04-23 20:41:05]  I0423 12:39:46.023277    21 net.cpp:367] BatchNorm20 -> Convolution20 (in-place)
[2018-04-23 20:41:05]  I0423 12:39:46.023774    21 net.cpp:122] Setting up BatchNorm20
[2018-04-23 20:41:05]  I0423 12:39:46.023797    21 net.cpp:129] Top shape: 32 128 8 8 (262144)
[2018-04-23 20:41:05]  I0423 12:39:46.023802    21 net.cpp:137] Memory required for data: 268960128
[2018-04-23 20:41:05]  I0423 12:39:46.023811    21 layer_factory.hpp:77] Creating layer Scale20
[2018-04-23 20:41:05]  I0423 12:39:46.023826    21 net.cpp:84] Creating Layer Scale20
[2018-04-23 20:41:05]  I0423 12:39:46.023838    21 net.cpp:406] Scale20 <- Convolution20
[2018-04-23 20:41:05]  I0423 12:39:46.023846    21 net.cpp:367] Scale20 -> Convolution20 (in-place)
[2018-04-23 20:41:05]  I0423 12:39:46.023948    21 layer_factory.hpp:77] Creating layer Scale20
[2018-04-23 20:41:05]  I0423 12:39:46.024293    21 net.cpp:122] Setting up Scale20
[2018-04-23 20:41:05]  I0423 12:39:46.024314    21 net.cpp:129] Top shape: 32 128 8 8 (262144)
[2018-04-23 20:41:05]  I0423 12:39:46.024319    21 net.cpp:137] Memory required for data: 270008704
[2018-04-23 20:41:05]  I0423 12:39:46.024327    21 layer_factory.hpp:77] Creating layer ReLU18
[2018-04-23 20:41:05]  I0423 12:39:46.024334    21 net.cpp:84] Creating Layer ReLU18
[2018-04-23 20:41:05]  I0423 12:39:46.024339    21 net.cpp:406] ReLU18 <- Convolution20
[2018-04-23 20:41:05]  I0423 12:39:46.024353    21 net.cpp:367] ReLU18 -> Convolution20 (in-place)
[2018-04-23 20:41:05]  I0423 12:39:46.024751    21 net.cpp:122] Setting up ReLU18
[2018-04-23 20:41:05]  I0423 12:39:46.024796    21 net.cpp:129] Top shape: 32 128 8 8 (262144)
[2018-04-23 20:41:05]  I0423 12:39:46.024806    21 net.cpp:137] Memory required for data: 271057280
[2018-04-23 20:41:05]  I0423 12:39:46.024899    21 layer_factory.hpp:77] Creating layer Convolution21
[2018-04-23 20:41:05]  I0423 12:39:46.024953    21 net.cpp:84] Creating Layer Convolution21
[2018-04-23 20:41:06]  I0423 12:39:46.024961    21 net.cpp:406] Convolution21 <- Convolution20
[2018-04-23 20:41:06]  I0423 12:39:46.024977    21 net.cpp:380] Convolution21 -> Convolution21
[2018-04-23 20:41:06]  I0423 12:39:46.028336    21 net.cpp:122] Setting up Convolution21
[2018-04-23 20:41:06]  I0423 12:39:46.028363    21 net.cpp:129] Top shape: 32 128 8 8 (262144)
[2018-04-23 20:41:06]  I0423 12:39:46.028367    21 net.cpp:137] Memory required for data: 272105856
[2018-04-23 20:41:06]  I0423 12:39:46.028376    21 layer_factory.hpp:77] Creating layer BatchNorm21
[2018-04-23 20:41:06]  I0423 12:39:46.028522    21 net.cpp:84] Creating Layer BatchNorm21
[2018-04-23 20:41:06]  I0423 12:39:46.028537    21 net.cpp:406] BatchNorm21 <- Convolution21
[2018-04-23 20:41:06]  I0423 12:39:46.028626    21 net.cpp:367] BatchNorm21 -> Convolution21 (in-place)
[2018-04-23 20:41:06]  I0423 12:39:46.029088    21 net.cpp:122] Setting up BatchNorm21
[2018-04-23 20:41:06]  I0423 12:39:46.029106    21 net.cpp:129] Top shape: 32 128 8 8 (262144)
[2018-04-23 20:41:06]  I0423 12:39:46.029110    21 net.cpp:137] Memory required for data: 273154432
[2018-04-23 20:41:06]  I0423 12:39:46.029120    21 layer_factory.hpp:77] Creating layer Scale21
[2018-04-23 20:41:06]  I0423 12:39:46.029135    21 net.cpp:84] Creating Layer Scale21
[2018-04-23 20:41:06]  I0423 12:39:46.029147    21 net.cpp:406] Scale21 <- Convolution21
[2018-04-23 20:41:06]  I0423 12:39:46.029155    21 net.cpp:367] Scale21 -> Convolution21 (in-place)
[2018-04-23 20:41:06]  I0423 12:39:46.029232    21 layer_factory.hpp:77] Creating layer Scale21
[2018-04-23 20:41:06]  I0423 12:39:46.029484    21 net.cpp:122] Setting up Scale21
[2018-04-23 20:41:06]  I0423 12:39:46.029512    21 net.cpp:129] Top shape: 32 128 8 8 (262144)
[2018-04-23 20:41:06]  I0423 12:39:46.029517    21 net.cpp:137] Memory required for data: 274203008
[2018-04-23 20:41:06]  I0423 12:39:46.029525    21 layer_factory.hpp:77] Creating layer Eltwise9
[2018-04-23 20:41:06]  I0423 12:39:46.029539    21 net.cpp:84] Creating Layer Eltwise9
[2018-04-23 20:41:06]  I0423 12:39:46.029552    21 net.cpp:406] Eltwise9 <- Eltwise8_ReLU17_0_split_1
[2018-04-23 20:41:06]  I0423 12:39:46.029558    21 net.cpp:406] Eltwise9 <- Convolution21
[2018-04-23 20:41:06]  I0423 12:39:46.029566    21 net.cpp:380] Eltwise9 -> Eltwise9
[2018-04-23 20:41:06]  I0423 12:39:46.029618    21 net.cpp:122] Setting up Eltwise9
[2018-04-23 20:41:06]  I0423 12:39:46.029634    21 net.cpp:129] Top shape: 32 128 8 8 (262144)
[2018-04-23 20:41:06]  I0423 12:39:46.029639    21 net.cpp:137] Memory required for data: 275251584
[2018-04-23 20:41:06]  I0423 12:39:46.029641    21 layer_factory.hpp:77] Creating layer ReLU19
[2018-04-23 20:41:06]  I0423 12:39:46.029649    21 net.cpp:84] Creating Layer ReLU19
[2018-04-23 20:41:06]  I0423 12:39:46.029654    21 net.cpp:406] ReLU19 <- Eltwise9
[2018-04-23 20:41:06]  I0423 12:39:46.029665    21 net.cpp:367] ReLU19 -> Eltwise9 (in-place)
[2018-04-23 20:41:06]  I0423 12:39:46.030355    21 net.cpp:122] Setting up ReLU19
[2018-04-23 20:41:06]  I0423 12:39:46.030380    21 net.cpp:129] Top shape: 32 128 8 8 (262144)
[2018-04-23 20:41:06]  I0423 12:39:46.030385    21 net.cpp:137] Memory required for data: 276300160
[2018-04-23 20:41:06]  I0423 12:39:46.030388    21 layer_factory.hpp:77] Creating layer Eltwise9_ReLU19_0_split
[2018-04-23 20:41:06]  I0423 12:39:46.030396    21 net.cpp:84] Creating Layer Eltwise9_ReLU19_0_split
[2018-04-23 20:41:06]  I0423 12:39:46.030401    21 net.cpp:406] Eltwise9_ReLU19_0_split <- Eltwise9
[2018-04-23 20:41:06]  I0423 12:39:46.030417    21 net.cpp:380] Eltwise9_ReLU19_0_split -> Eltwise9_ReLU19_0_split_0
[2018-04-23 20:41:06]  I0423 12:39:46.030433    21 net.cpp:380] Eltwise9_ReLU19_0_split -> Eltwise9_ReLU19_0_split_1
[2018-04-23 20:41:06]  I0423 12:39:46.030628    21 net.cpp:122] Setting up Eltwise9_ReLU19_0_split
[2018-04-23 20:41:06]  I0423 12:39:46.030652    21 net.cpp:129] Top shape: 32 128 8 8 (262144)
[2018-04-23 20:41:06]  I0423 12:39:46.030658    21 net.cpp:129] Top shape: 32 128 8 8 (262144)
[2018-04-23 20:41:06]  I0423 12:39:46.030661    21 net.cpp:137] Memory required for data: 278397312
[2018-04-23 20:41:06]  I0423 12:39:46.030665    21 layer_factory.hpp:77] Creating layer Convolution22
[2018-04-23 20:41:06]  I0423 12:39:46.030684    21 net.cpp:84] Creating Layer Convolution22
[2018-04-23 20:41:06]  I0423 12:39:46.030696    21 net.cpp:406] Convolution22 <- Eltwise9_ReLU19_0_split_0
[2018-04-23 20:41:06]  I0423 12:39:46.030804    21 net.cpp:380] Convolution22 -> Convolution22
[2018-04-23 20:41:06]  I0423 12:39:46.033448    21 net.cpp:122] Setting up Convolution22
[2018-04-23 20:41:06]  I0423 12:39:46.033610    21 net.cpp:129] Top shape: 32 256 4 4 (131072)
[2018-04-23 20:41:06]  I0423 12:39:46.033630    21 net.cpp:137] Memory required for data: 278921600
[2018-04-23 20:41:06]  I0423 12:39:46.033640    21 layer_factory.hpp:77] Creating layer BatchNorm22
[2018-04-23 20:41:06]  I0423 12:39:46.033716    21 net.cpp:84] Creating Layer BatchNorm22
[2018-04-23 20:41:06]  I0423 12:39:46.033735    21 net.cpp:406] BatchNorm22 <- Convolution22
[2018-04-23 20:41:06]  I0423 12:39:46.033860    21 net.cpp:367] BatchNorm22 -> Convolution22 (in-place)
[2018-04-23 20:41:06]  I0423 12:39:46.034447    21 net.cpp:122] Setting up BatchNorm22
[2018-04-23 20:41:06]  I0423 12:39:46.034469    21 net.cpp:129] Top shape: 32 256 4 4 (131072)
[2018-04-23 20:41:06]  I0423 12:39:46.034473    21 net.cpp:137] Memory required for data: 279445888
[2018-04-23 20:41:07]  I0423 12:39:46.034483    21 layer_factory.hpp:77] Creating layer Scale22
[2018-04-23 20:41:07]  I0423 12:39:46.034502    21 net.cpp:84] Creating Layer Scale22
[2018-04-23 20:41:07]  I0423 12:39:46.034513    21 net.cpp:406] Scale22 <- Convolution22
[2018-04-23 20:41:07]  I0423 12:39:46.034521    21 net.cpp:367] Scale22 -> Convolution22 (in-place)
[2018-04-23 20:41:07]  I0423 12:39:46.034651    21 layer_factory.hpp:77] Creating layer Scale22
[2018-04-23 20:41:07]  I0423 12:39:46.035030    21 net.cpp:122] Setting up Scale22
[2018-04-23 20:41:07]  I0423 12:39:46.035053    21 net.cpp:129] Top shape: 32 256 4 4 (131072)
[2018-04-23 20:41:07]  I0423 12:39:46.035058    21 net.cpp:137] Memory required for data: 279970176
[2018-04-23 20:41:07]  I0423 12:39:46.035065    21 layer_factory.hpp:77] Creating layer Convolution23
[2018-04-23 20:41:07]  I0423 12:39:46.035121    21 net.cpp:84] Creating Layer Convolution23
[2018-04-23 20:41:07]  I0423 12:39:46.035128    21 net.cpp:406] Convolution23 <- Eltwise9_ReLU19_0_split_1
[2018-04-23 20:41:07]  I0423 12:39:46.035290    21 net.cpp:380] Convolution23 -> Convolution23
[2018-04-23 20:41:07]  I0423 12:39:46.044536    21 net.cpp:122] Setting up Convolution23
[2018-04-23 20:41:07]  I0423 12:39:46.044565    21 net.cpp:129] Top shape: 32 256 4 4 (131072)
[2018-04-23 20:41:07]  I0423 12:39:46.044570    21 net.cpp:137] Memory required for data: 280494464
[2018-04-23 20:41:07]  I0423 12:39:46.044579    21 layer_factory.hpp:77] Creating layer BatchNorm23
[2018-04-23 20:41:07]  I0423 12:39:46.044706    21 net.cpp:84] Creating Layer BatchNorm23
[2018-04-23 20:41:07]  I0423 12:39:46.044718    21 net.cpp:406] BatchNorm23 <- Convolution23
[2018-04-23 20:41:07]  I0423 12:39:46.044731    21 net.cpp:367] BatchNorm23 -> Convolution23 (in-place)
[2018-04-23 20:41:07]  I0423 12:39:46.045228    21 net.cpp:122] Setting up BatchNorm23
[2018-04-23 20:41:07]  I0423 12:39:46.045250    21 net.cpp:129] Top shape: 32 256 4 4 (131072)
[2018-04-23 20:41:07]  I0423 12:39:46.045254    21 net.cpp:137] Memory required for data: 281018752
[2018-04-23 20:41:07]  I0423 12:39:46.045264    21 layer_factory.hpp:77] Creating layer Scale23
[2018-04-23 20:41:07]  I0423 12:39:46.045272    21 net.cpp:84] Creating Layer Scale23
[2018-04-23 20:41:07]  I0423 12:39:46.045279    21 net.cpp:406] Scale23 <- Convolution23
[2018-04-23 20:41:07]  I0423 12:39:46.045292    21 net.cpp:367] Scale23 -> Convolution23 (in-place)
[2018-04-23 20:41:07]  I0423 12:39:46.045449    21 layer_factory.hpp:77] Creating layer Scale23
[2018-04-23 20:41:07]  I0423 12:39:46.045765    21 net.cpp:122] Setting up Scale23
[2018-04-23 20:41:07]  I0423 12:39:46.045783    21 net.cpp:129] Top shape: 32 256 4 4 (131072)
[2018-04-23 20:41:07]  I0423 12:39:46.045789    21 net.cpp:137] Memory required for data: 281543040
[2018-04-23 20:41:07]  I0423 12:39:46.045795    21 layer_factory.hpp:77] Creating layer ReLU20
[2018-04-23 20:41:07]  I0423 12:39:46.045802    21 net.cpp:84] Creating Layer ReLU20
[2018-04-23 20:41:07]  I0423 12:39:46.045809    21 net.cpp:406] ReLU20 <- Convolution23
[2018-04-23 20:41:07]  I0423 12:39:46.045815    21 net.cpp:367] ReLU20 -> Convolution23 (in-place)
[2018-04-23 20:41:07]  I0423 12:39:46.046162    21 net.cpp:122] Setting up ReLU20
[2018-04-23 20:41:07]  I0423 12:39:46.046185    21 net.cpp:129] Top shape: 32 256 4 4 (131072)
[2018-04-23 20:41:07]  I0423 12:39:46.046190    21 net.cpp:137] Memory required for data: 282067328
[2018-04-23 20:41:07]  I0423 12:39:46.046195    21 layer_factory.hpp:77] Creating layer Convolution24
[2018-04-23 20:41:07]  I0423 12:39:46.046208    21 net.cpp:84] Creating Layer Convolution24
[2018-04-23 20:41:07]  I0423 12:39:46.046213    21 net.cpp:406] Convolution24 <- Convolution23
[2018-04-23 20:41:07]  I0423 12:39:46.046222    21 net.cpp:380] Convolution24 -> Convolution24
[2018-04-23 20:41:07]  I0423 12:39:46.055232    21 net.cpp:122] Setting up Convolution24
[2018-04-23 20:41:07]  I0423 12:39:46.055265    21 net.cpp:129] Top shape: 32 256 4 4 (131072)
[2018-04-23 20:41:07]  I0423 12:39:46.055271    21 net.cpp:137] Memory required for data: 282591616
[2018-04-23 20:41:07]  I0423 12:39:46.055281    21 layer_factory.hpp:77] Creating layer BatchNorm24
[2018-04-23 20:41:07]  I0423 12:39:46.055289    21 net.cpp:84] Creating Layer BatchNorm24
[2018-04-23 20:41:07]  I0423 12:39:46.055294    21 net.cpp:406] BatchNorm24 <- Convolution24
[2018-04-23 20:41:07]  I0423 12:39:46.055307    21 net.cpp:367] BatchNorm24 -> Convolution24 (in-place)
[2018-04-23 20:41:07]  I0423 12:39:46.055711    21 net.cpp:122] Setting up BatchNorm24
[2018-04-23 20:41:07]  I0423 12:39:46.055730    21 net.cpp:129] Top shape: 32 256 4 4 (131072)
[2018-04-23 20:41:07]  I0423 12:39:46.055734    21 net.cpp:137] Memory required for data: 283115904
[2018-04-23 20:41:07]  I0423 12:39:46.055743    21 layer_factory.hpp:77] Creating layer Scale24
[2018-04-23 20:41:07]  I0423 12:39:46.055758    21 net.cpp:84] Creating Layer Scale24
[2018-04-23 20:41:07]  I0423 12:39:46.055764    21 net.cpp:406] Scale24 <- Convolution24
[2018-04-23 20:41:07]  I0423 12:39:46.055770    21 net.cpp:367] Scale24 -> Convolution24 (in-place)
[2018-04-23 20:41:07]  I0423 12:39:46.055850    21 layer_factory.hpp:77] Creating layer Scale24
[2018-04-23 20:41:07]  I0423 12:39:46.056078    21 net.cpp:122] Setting up Scale24
[2018-04-23 20:41:08]  I0423 12:39:46.056097    21 net.cpp:129] Top shape: 32 256 4 4 (131072)
[2018-04-23 20:41:08]  I0423 12:39:46.056100    21 net.cpp:137] Memory required for data: 283640192
[2018-04-23 20:41:08]  I0423 12:39:46.056107    21 layer_factory.hpp:77] Creating layer Eltwise10
[2018-04-23 20:41:08]  I0423 12:39:46.056115    21 net.cpp:84] Creating Layer Eltwise10
[2018-04-23 20:41:08]  I0423 12:39:46.056119    21 net.cpp:406] Eltwise10 <- Convolution22
[2018-04-23 20:41:08]  I0423 12:39:46.056124    21 net.cpp:406] Eltwise10 <- Convolution24
[2018-04-23 20:41:08]  I0423 12:39:46.056138    21 net.cpp:380] Eltwise10 -> Eltwise10
[2018-04-23 20:41:08]  I0423 12:39:46.056236    21 net.cpp:122] Setting up Eltwise10
[2018-04-23 20:41:08]  I0423 12:39:46.056257    21 net.cpp:129] Top shape: 32 256 4 4 (131072)
[2018-04-23 20:41:08]  I0423 12:39:46.056262    21 net.cpp:137] Memory required for data: 284164480
[2018-04-23 20:41:08]  I0423 12:39:46.056265    21 layer_factory.hpp:77] Creating layer ReLU21
[2018-04-23 20:41:08]  I0423 12:39:46.056367    21 net.cpp:84] Creating Layer ReLU21
[2018-04-23 20:41:08]  I0423 12:39:46.056386    21 net.cpp:406] ReLU21 <- Eltwise10
[2018-04-23 20:41:08]  I0423 12:39:46.056406    21 net.cpp:367] ReLU21 -> Eltwise10 (in-place)
[2018-04-23 20:41:08]  I0423 12:39:46.056828    21 net.cpp:122] Setting up ReLU21
[2018-04-23 20:41:08]  I0423 12:39:46.056851    21 net.cpp:129] Top shape: 32 256 4 4 (131072)
[2018-04-23 20:41:08]  I0423 12:39:46.056855    21 net.cpp:137] Memory required for data: 284688768
[2018-04-23 20:41:08]  I0423 12:39:46.056860    21 layer_factory.hpp:77] Creating layer Eltwise10_ReLU21_0_split
[2018-04-23 20:41:08]  I0423 12:39:46.056958    21 net.cpp:84] Creating Layer Eltwise10_ReLU21_0_split
[2018-04-23 20:41:08]  I0423 12:39:46.056977    21 net.cpp:406] Eltwise10_ReLU21_0_split <- Eltwise10
[2018-04-23 20:41:08]  I0423 12:39:46.056994    21 net.cpp:380] Eltwise10_ReLU21_0_split -> Eltwise10_ReLU21_0_split_0
[2018-04-23 20:41:08]  I0423 12:39:46.057006    21 net.cpp:380] Eltwise10_ReLU21_0_split -> Eltwise10_ReLU21_0_split_1
[2018-04-23 20:41:08]  I0423 12:39:46.057144    21 net.cpp:122] Setting up Eltwise10_ReLU21_0_split
[2018-04-23 20:41:08]  I0423 12:39:46.057166    21 net.cpp:129] Top shape: 32 256 4 4 (131072)
[2018-04-23 20:41:08]  I0423 12:39:46.057171    21 net.cpp:129] Top shape: 32 256 4 4 (131072)
[2018-04-23 20:41:08]  I0423 12:39:46.057175    21 net.cpp:137] Memory required for data: 285737344
[2018-04-23 20:41:08]  I0423 12:39:46.057179    21 layer_factory.hpp:77] Creating layer Convolution25
[2018-04-23 20:41:08]  I0423 12:39:46.057299    21 net.cpp:84] Creating Layer Convolution25
[2018-04-23 20:41:08]  I0423 12:39:46.057312    21 net.cpp:406] Convolution25 <- Eltwise10_ReLU21_0_split_0
[2018-04-23 20:41:08]  I0423 12:39:46.057416    21 net.cpp:380] Convolution25 -> Convolution25
[2018-04-23 20:41:08]  I0423 12:39:46.069185    21 net.cpp:122] Setting up Convolution25
[2018-04-23 20:41:08]  I0423 12:39:46.069219    21 net.cpp:129] Top shape: 32 256 4 4 (131072)
[2018-04-23 20:41:08]  I0423 12:39:46.069224    21 net.cpp:137] Memory required for data: 286261632
[2018-04-23 20:41:08]  I0423 12:39:46.069236    21 layer_factory.hpp:77] Creating layer BatchNorm25
[2018-04-23 20:41:08]  I0423 12:39:46.069245    21 net.cpp:84] Creating Layer BatchNorm25
[2018-04-23 20:41:08]  I0423 12:39:46.069250    21 net.cpp:406] BatchNorm25 <- Convolution25
[2018-04-23 20:41:08]  I0423 12:39:46.069260    21 net.cpp:367] BatchNorm25 -> Convolution25 (in-place)
[2018-04-23 20:41:08]  I0423 12:39:46.069882    21 net.cpp:122] Setting up BatchNorm25
[2018-04-23 20:41:08]  I0423 12:39:46.069911    21 net.cpp:129] Top shape: 32 256 4 4 (131072)
[2018-04-23 20:41:08]  I0423 12:39:46.069917    21 net.cpp:137] Memory required for data: 286785920
[2018-04-23 20:41:08]  I0423 12:39:46.069929    21 layer_factory.hpp:77] Creating layer Scale25
[2018-04-23 20:41:08]  I0423 12:39:46.069939    21 net.cpp:84] Creating Layer Scale25
[2018-04-23 20:41:08]  I0423 12:39:46.069947    21 net.cpp:406] Scale25 <- Convolution25
[2018-04-23 20:41:08]  I0423 12:39:46.069954    21 net.cpp:367] Scale25 -> Convolution25 (in-place)
[2018-04-23 20:41:08]  I0423 12:39:46.070052    21 layer_factory.hpp:77] Creating layer Scale25
[2018-04-23 20:41:08]  I0423 12:39:46.070272    21 net.cpp:122] Setting up Scale25
[2018-04-23 20:41:08]  I0423 12:39:46.070291    21 net.cpp:129] Top shape: 32 256 4 4 (131072)
[2018-04-23 20:41:08]  I0423 12:39:46.070296    21 net.cpp:137] Memory required for data: 287310208
[2018-04-23 20:41:08]  I0423 12:39:46.070302    21 layer_factory.hpp:77] Creating layer ReLU22
[2018-04-23 20:41:08]  I0423 12:39:46.070317    21 net.cpp:84] Creating Layer ReLU22
[2018-04-23 20:41:08]  I0423 12:39:46.070324    21 net.cpp:406] ReLU22 <- Convolution25
[2018-04-23 20:41:08]  I0423 12:39:46.070330    21 net.cpp:367] ReLU22 -> Convolution25 (in-place)
[2018-04-23 20:41:08]  I0423 12:39:46.070750    21 net.cpp:122] Setting up ReLU22
[2018-04-23 20:41:08]  I0423 12:39:46.070771    21 net.cpp:129] Top shape: 32 256 4 4 (131072)
[2018-04-23 20:41:08]  I0423 12:39:46.070775    21 net.cpp:137] Memory required for data: 287834496
[2018-04-23 20:41:08]  I0423 12:39:46.070780    21 layer_factory.hpp:77] Creating layer Convolution26
[2018-04-23 20:41:08]  I0423 12:39:46.070796    21 net.cpp:84] Creating Layer Convolution26
[2018-04-23 20:41:08]  I0423 12:39:46.070807    21 net.cpp:406] Convolution26 <- Convolution25
[2018-04-23 20:41:08]  I0423 12:39:46.070819    21 net.cpp:380] Convolution26 -> Convolution26
[2018-04-23 20:41:08]  I0423 12:39:46.080339    21 net.cpp:122] Setting up Convolution26
[2018-04-23 20:41:08]  I0423 12:39:46.080368    21 net.cpp:129] Top shape: 32 256 4 4 (131072)
[2018-04-23 20:41:08]  I0423 12:39:46.080373    21 net.cpp:137] Memory required for data: 288358784
[2018-04-23 20:41:08]  I0423 12:39:46.080380    21 layer_factory.hpp:77] Creating layer BatchNorm26
[2018-04-23 20:41:09]  I0423 12:39:46.080397    21 net.cpp:84] Creating Layer BatchNorm26
[2018-04-23 20:41:09]  I0423 12:39:46.080404    21 net.cpp:406] BatchNorm26 <- Convolution26
[2018-04-23 20:41:09]  I0423 12:39:46.080416    21 net.cpp:367] BatchNorm26 -> Convolution26 (in-place)
[2018-04-23 20:41:09]  I0423 12:39:46.080790    21 net.cpp:122] Setting up BatchNorm26
[2018-04-23 20:41:09]  I0423 12:39:46.080808    21 net.cpp:129] Top shape: 32 256 4 4 (131072)
[2018-04-23 20:41:09]  I0423 12:39:46.080813    21 net.cpp:137] Memory required for data: 288883072
[2018-04-23 20:41:09]  I0423 12:39:46.080821    21 layer_factory.hpp:77] Creating layer Scale26
[2018-04-23 20:41:09]  I0423 12:39:46.080830    21 net.cpp:84] Creating Layer Scale26
[2018-04-23 20:41:09]  I0423 12:39:46.080835    21 net.cpp:406] Scale26 <- Convolution26
[2018-04-23 20:41:09]  I0423 12:39:46.080848    21 net.cpp:367] Scale26 -> Convolution26 (in-place)
[2018-04-23 20:41:09]  I0423 12:39:46.080925    21 layer_factory.hpp:77] Creating layer Scale26
[2018-04-23 20:41:09]  I0423 12:39:46.081157    21 net.cpp:122] Setting up Scale26
[2018-04-23 20:41:09]  I0423 12:39:46.081174    21 net.cpp:129] Top shape: 32 256 4 4 (131072)
[2018-04-23 20:41:09]  I0423 12:39:46.081178    21 net.cpp:137] Memory required for data: 289407360
[2018-04-23 20:41:09]  I0423 12:39:46.081185    21 layer_factory.hpp:77] Creating layer Eltwise11
[2018-04-23 20:41:09]  I0423 12:39:46.081193    21 net.cpp:84] Creating Layer Eltwise11
[2018-04-23 20:41:09]  I0423 12:39:46.081198    21 net.cpp:406] Eltwise11 <- Eltwise10_ReLU21_0_split_1
[2018-04-23 20:41:09]  I0423 12:39:46.081204    21 net.cpp:406] Eltwise11 <- Convolution26
[2018-04-23 20:41:09]  I0423 12:39:46.081212    21 net.cpp:380] Eltwise11 -> Eltwise11
[2018-04-23 20:41:09]  I0423 12:39:46.081267    21 net.cpp:122] Setting up Eltwise11
[2018-04-23 20:41:09]  I0423 12:39:46.081288    21 net.cpp:129] Top shape: 32 256 4 4 (131072)
[2018-04-23 20:41:09]  I0423 12:39:46.081293    21 net.cpp:137] Memory required for data: 289931648
[2018-04-23 20:41:09]  I0423 12:39:46.081297    21 layer_factory.hpp:77] Creating layer ReLU23
[2018-04-23 20:41:09]  I0423 12:39:46.081305    21 net.cpp:84] Creating Layer ReLU23
[2018-04-23 20:41:09]  I0423 12:39:46.081310    21 net.cpp:406] ReLU23 <- Eltwise11
[2018-04-23 20:41:09]  I0423 12:39:46.081315    21 net.cpp:367] ReLU23 -> Eltwise11 (in-place)
[2018-04-23 20:41:09]  I0423 12:39:46.081897    21 net.cpp:122] Setting up ReLU23
[2018-04-23 20:41:09]  I0423 12:39:46.081923    21 net.cpp:129] Top shape: 32 256 4 4 (131072)
[2018-04-23 20:41:09]  I0423 12:39:46.081928    21 net.cpp:137] Memory required for data: 290455936
[2018-04-23 20:41:09]  I0423 12:39:46.081931    21 layer_factory.hpp:77] Creating layer Eltwise11_ReLU23_0_split
[2018-04-23 20:41:09]  I0423 12:39:46.081946    21 net.cpp:84] Creating Layer Eltwise11_ReLU23_0_split
[2018-04-23 20:41:09]  I0423 12:39:46.081954    21 net.cpp:406] Eltwise11_ReLU23_0_split <- Eltwise11
[2018-04-23 20:41:09]  I0423 12:39:46.081962    21 net.cpp:380] Eltwise11_ReLU23_0_split -> Eltwise11_ReLU23_0_split_0
[2018-04-23 20:41:09]  I0423 12:39:46.081972    21 net.cpp:380] Eltwise11_ReLU23_0_split -> Eltwise11_ReLU23_0_split_1
[2018-04-23 20:41:09]  I0423 12:39:46.082089    21 net.cpp:122] Setting up Eltwise11_ReLU23_0_split
[2018-04-23 20:41:09]  I0423 12:39:46.082108    21 net.cpp:129] Top shape: 32 256 4 4 (131072)
[2018-04-23 20:41:09]  I0423 12:39:46.082116    21 net.cpp:129] Top shape: 32 256 4 4 (131072)
[2018-04-23 20:41:09]  I0423 12:39:46.082120    21 net.cpp:137] Memory required for data: 291504512
[2018-04-23 20:41:09]  I0423 12:39:46.082125    21 layer_factory.hpp:77] Creating layer Convolution27
[2018-04-23 20:41:09]  I0423 12:39:46.082137    21 net.cpp:84] Creating Layer Convolution27
[2018-04-23 20:41:09]  I0423 12:39:46.082149    21 net.cpp:406] Convolution27 <- Eltwise11_ReLU23_0_split_0
[2018-04-23 20:41:09]  I0423 12:39:46.082160    21 net.cpp:380] Convolution27 -> Convolution27
[2018-04-23 20:41:09]  I0423 12:39:46.091286    21 net.cpp:122] Setting up Convolution27
[2018-04-23 20:41:09]  I0423 12:39:46.091315    21 net.cpp:129] Top shape: 32 256 4 4 (131072)
[2018-04-23 20:41:09]  I0423 12:39:46.091320    21 net.cpp:137] Memory required for data: 292028800
[2018-04-23 20:41:09]  I0423 12:39:46.091328    21 layer_factory.hpp:77] Creating layer BatchNorm27
[2018-04-23 20:41:09]  I0423 12:39:46.091337    21 net.cpp:84] Creating Layer BatchNorm27
[2018-04-23 20:41:09]  I0423 12:39:46.091342    21 net.cpp:406] BatchNorm27 <- Convolution27
[2018-04-23 20:41:09]  I0423 12:39:46.091353    21 net.cpp:367] BatchNorm27 -> Convolution27 (in-place)
[2018-04-23 20:41:09]  I0423 12:39:46.091783    21 net.cpp:122] Setting up BatchNorm27
[2018-04-23 20:41:09]  I0423 12:39:46.091801    21 net.cpp:129] Top shape: 32 256 4 4 (131072)
[2018-04-23 20:41:09]  I0423 12:39:46.091805    21 net.cpp:137] Memory required for data: 292553088
[2018-04-23 20:41:09]  I0423 12:39:46.091827    21 layer_factory.hpp:77] Creating layer Scale27
[2018-04-23 20:41:09]  I0423 12:39:46.091871    21 net.cpp:84] Creating Layer Scale27
[2018-04-23 20:41:09]  I0423 12:39:46.091886    21 net.cpp:406] Scale27 <- Convolution27
[2018-04-23 20:41:09]  I0423 12:39:46.091892    21 net.cpp:367] Scale27 -> Convolution27 (in-place)
[2018-04-23 20:41:09]  I0423 12:39:46.091966    21 layer_factory.hpp:77] Creating layer Scale27
[2018-04-23 20:41:09]  I0423 12:39:46.092180    21 net.cpp:122] Setting up Scale27
[2018-04-23 20:41:10]  I0423 12:39:46.092196    21 net.cpp:129] Top shape: 32 256 4 4 (131072)
[2018-04-23 20:41:10]  I0423 12:39:46.092201    21 net.cpp:137] Memory required for data: 293077376
[2018-04-23 20:41:10]  I0423 12:39:46.092209    21 layer_factory.hpp:77] Creating layer ReLU24
[2018-04-23 20:41:10]  I0423 12:39:46.092229    21 net.cpp:84] Creating Layer ReLU24
[2018-04-23 20:41:10]  I0423 12:39:46.092241    21 net.cpp:406] ReLU24 <- Convolution27
[2018-04-23 20:41:10]  I0423 12:39:46.092247    21 net.cpp:367] ReLU24 -> Convolution27 (in-place)
[2018-04-23 20:41:10]  I0423 12:39:46.092615    21 net.cpp:122] Setting up ReLU24
[2018-04-23 20:41:10]  I0423 12:39:46.092634    21 net.cpp:129] Top shape: 32 256 4 4 (131072)
[2018-04-23 20:41:10]  I0423 12:39:46.092638    21 net.cpp:137] Memory required for data: 293601664
[2018-04-23 20:41:10]  I0423 12:39:46.092643    21 layer_factory.hpp:77] Creating layer Convolution28
[2018-04-23 20:41:10]  I0423 12:39:46.092664    21 net.cpp:84] Creating Layer Convolution28
[2018-04-23 20:41:10]  I0423 12:39:46.092674    21 net.cpp:406] Convolution28 <- Convolution27
[2018-04-23 20:41:10]  I0423 12:39:46.092684    21 net.cpp:380] Convolution28 -> Convolution28
[2018-04-23 20:41:10]  I0423 12:39:46.101929    21 net.cpp:122] Setting up Convolution28
[2018-04-23 20:41:10]  I0423 12:39:46.101958    21 net.cpp:129] Top shape: 32 256 4 4 (131072)
[2018-04-23 20:41:10]  I0423 12:39:46.101963    21 net.cpp:137] Memory required for data: 294125952
[2018-04-23 20:41:10]  I0423 12:39:46.101974    21 layer_factory.hpp:77] Creating layer BatchNorm28
[2018-04-23 20:41:10]  I0423 12:39:46.101990    21 net.cpp:84] Creating Layer BatchNorm28
[2018-04-23 20:41:10]  I0423 12:39:46.101999    21 net.cpp:406] BatchNorm28 <- Convolution28
[2018-04-23 20:41:10]  I0423 12:39:46.102010    21 net.cpp:367] BatchNorm28 -> Convolution28 (in-place)
[2018-04-23 20:41:10]  I0423 12:39:46.102392    21 net.cpp:122] Setting up BatchNorm28
[2018-04-23 20:41:10]  I0423 12:39:46.102411    21 net.cpp:129] Top shape: 32 256 4 4 (131072)
[2018-04-23 20:41:10]  I0423 12:39:46.102414    21 net.cpp:137] Memory required for data: 294650240
[2018-04-23 20:41:10]  I0423 12:39:46.102423    21 layer_factory.hpp:77] Creating layer Scale28
[2018-04-23 20:41:10]  I0423 12:39:46.102432    21 net.cpp:84] Creating Layer Scale28
[2018-04-23 20:41:10]  I0423 12:39:46.102437    21 net.cpp:406] Scale28 <- Convolution28
[2018-04-23 20:41:10]  I0423 12:39:46.102442    21 net.cpp:367] Scale28 -> Convolution28 (in-place)
[2018-04-23 20:41:10]  I0423 12:39:46.102533    21 layer_factory.hpp:77] Creating layer Scale28
[2018-04-23 20:41:10]  I0423 12:39:46.102767    21 net.cpp:122] Setting up Scale28
[2018-04-23 20:41:10]  I0423 12:39:46.102783    21 net.cpp:129] Top shape: 32 256 4 4 (131072)
[2018-04-23 20:41:10]  I0423 12:39:46.102788    21 net.cpp:137] Memory required for data: 295174528
[2018-04-23 20:41:10]  I0423 12:39:46.102795    21 layer_factory.hpp:77] Creating layer Eltwise12
[2018-04-23 20:41:10]  I0423 12:39:46.102802    21 net.cpp:84] Creating Layer Eltwise12
[2018-04-23 20:41:10]  I0423 12:39:46.102807    21 net.cpp:406] Eltwise12 <- Eltwise11_ReLU23_0_split_1
[2018-04-23 20:41:10]  I0423 12:39:46.102814    21 net.cpp:406] Eltwise12 <- Convolution28
[2018-04-23 20:41:10]  I0423 12:39:46.102830    21 net.cpp:380] Eltwise12 -> Eltwise12
[2018-04-23 20:41:10]  I0423 12:39:46.102880    21 net.cpp:122] Setting up Eltwise12
[2018-04-23 20:41:10]  I0423 12:39:46.102890    21 net.cpp:129] Top shape: 32 256 4 4 (131072)
[2018-04-23 20:41:10]  I0423 12:39:46.102893    21 net.cpp:137] Memory required for data: 295698816
[2018-04-23 20:41:10]  I0423 12:39:46.102896    21 layer_factory.hpp:77] Creating layer ReLU25
[2018-04-23 20:41:10]  I0423 12:39:46.102910    21 net.cpp:84] Creating Layer ReLU25
[2018-04-23 20:41:10]  I0423 12:39:46.102916    21 net.cpp:406] ReLU25 <- Eltwise12
[2018-04-23 20:41:10]  I0423 12:39:46.102922    21 net.cpp:367] ReLU25 -> Eltwise12 (in-place)
[2018-04-23 20:41:10]  I0423 12:39:46.103252    21 net.cpp:122] Setting up ReLU25
[2018-04-23 20:41:10]  I0423 12:39:46.103272    21 net.cpp:129] Top shape: 32 256 4 4 (131072)
[2018-04-23 20:41:10]  I0423 12:39:46.103276    21 net.cpp:137] Memory required for data: 296223104
[2018-04-23 20:41:10]  I0423 12:39:46.103281    21 layer_factory.hpp:77] Creating layer Pooling1
[2018-04-23 20:41:10]  I0423 12:39:46.103292    21 net.cpp:84] Creating Layer Pooling1
[2018-04-23 20:41:10]  I0423 12:39:46.103297    21 net.cpp:406] Pooling1 <- Eltwise12
[2018-04-23 20:41:10]  I0423 12:39:46.103304    21 net.cpp:380] Pooling1 -> Pooling1
[2018-04-23 20:41:10]  I0423 12:39:46.103899    21 net.cpp:122] Setting up Pooling1
[2018-04-23 20:41:10]  I0423 12:39:46.103924    21 net.cpp:129] Top shape: 32 256 1 1 (8192)
[2018-04-23 20:41:10]  I0423 12:39:46.103929    21 net.cpp:137] Memory required for data: 296255872
[2018-04-23 20:41:10]  I0423 12:39:46.103934    21 layer_factory.hpp:77] Creating layer InnerProduct1
[2018-04-23 20:41:10]  I0423 12:39:46.103952    21 net.cpp:84] Creating Layer InnerProduct1
[2018-04-23 20:41:10]  I0423 12:39:46.103958    21 net.cpp:406] InnerProduct1 <- Pooling1
[2018-04-23 20:41:10]  I0423 12:39:46.103973    21 net.cpp:380] InnerProduct1 -> InnerProduct1
[2018-04-23 20:41:10]  I0423 12:39:46.104394    21 net.cpp:122] Setting up InnerProduct1
[2018-04-23 20:41:10]  I0423 12:39:46.104419    21 net.cpp:129] Top shape: 32 100 (3200)
[2018-04-23 20:41:10]  I0423 12:39:46.104424    21 net.cpp:137] Memory required for data: 296268672
[2018-04-23 20:41:10]  I0423 12:39:46.104432    21 layer_factory.hpp:77] Creating layer InnerProduct1_InnerProduct1_0_split
[2018-04-23 20:41:11]  I0423 12:39:46.104440    21 net.cpp:84] Creating Layer InnerProduct1_InnerProduct1_0_split
[2018-04-23 20:41:11]  I0423 12:39:46.104445    21 net.cpp:406] InnerProduct1_InnerProduct1_0_split <- InnerProduct1
[2018-04-23 20:41:11]  I0423 12:39:46.104452    21 net.cpp:380] InnerProduct1_InnerProduct1_0_split -> InnerProduct1_InnerProduct1_0_split_0
[2018-04-23 20:41:11]  I0423 12:39:46.104460    21 net.cpp:380] InnerProduct1_InnerProduct1_0_split -> InnerProduct1_InnerProduct1_0_split_1
[2018-04-23 20:41:11]  I0423 12:39:46.104557    21 net.cpp:122] Setting up InnerProduct1_InnerProduct1_0_split
[2018-04-23 20:41:11]  I0423 12:39:46.104568    21 net.cpp:129] Top shape: 32 100 (3200)
[2018-04-23 20:41:11]  I0423 12:39:46.104571    21 net.cpp:129] Top shape: 32 100 (3200)
[2018-04-23 20:41:11]  I0423 12:39:46.104574    21 net.cpp:137] Memory required for data: 296294272
[2018-04-23 20:41:11]  I0423 12:39:46.104578    21 layer_factory.hpp:77] Creating layer SoftmaxWithLoss1
[2018-04-23 20:41:11]  I0423 12:39:46.104593    21 net.cpp:84] Creating Layer SoftmaxWithLoss1
[2018-04-23 20:41:11]  I0423 12:39:46.104604    21 net.cpp:406] SoftmaxWithLoss1 <- InnerProduct1_InnerProduct1_0_split_0
…
